…
[info] net class: Res_Slim_ViT @ /autofs/nccs-svm1_home2/janetw/diffusion/ORBIT-2-sandbox/src/climate_learn/models/hub/res_slimvit.py

================================================================================
=== LIVE MODEL BEFORE TRAIN/LOAD ===

[net] full module tree:
================================================================================
[info] net class: Res_Slim_ViT @ /autofs/nccs-svm1_home2/janetw/diffusion/ORBIT-2-sandbox/src/climate_learn/models/hub/res_slimvit.py

[net] full module tree:
[info] net class: Res_Slim_ViT @ /autofs/nccs-svm1_home2/janetw/diffusion/ORBIT-2-sandbox/src/climate_learn/models/hub/res_slimvit.py
 Res_Slim_ViT(
  (patch_embed): PatchEmbed(
    (proj): Conv2d(126, 128, kernel_size=(2, 2), stride=(2, 2))
    (norm): Identity()
  )
  (pos_drop): Dropout(p=0.1, inplace=False)
  (blocks): ModuleList(
    (0): Block(
      (norm1): LayerNorm((128,), eps=1e-05, elementwise_affine=True)
      (attn): Attention(
        (qkv): Linear(in_features=128, out_features=384, bias=True)
        (q_norm): Identity()
        (k_norm): Identity()
        (attn_drop): Dropout(p=0.1, inplace=False)
        (proj): Linear(in_features=128, out_features=128, bias=True)
        (proj_drop): Dropout(p=0.1, inplace=False)
      )
      (ls1): Identity()
      (drop_path1): Identity()
      (norm2): LayerNorm((128,), eps=1e-05, elementwise_affine=True)
      (mlp): Mlp(
        (fc1): Linear(in_features=128, out_features=512, bias=True)
        (act): GELU(approximate='none')
        (drop1): Dropout(p=0.1, inplace=False)
        (norm): Identity()
        (fc2): Linear(in_features=512, out_features=128, bias=True)
        (drop2): Dropout(p=0.1, inplace=False)
      )
      (ls2): Identity()
      (drop_path2): Identity()
    )
    (1): Block(
      (norm1): LayerNorm((128,), eps=1e-05, elementwise_affine=True)
      (attn): Attention(
        (qkv): Linear(in_features=128, out_features=384, bias=True)
        (q_norm): Identity()
        (k_norm): Identity()
        (attn_drop): Dropout(p=0.1, inplace=False)
        (proj): Linear(in_features=128, out_features=128, bias=True)
        (proj_drop): Dropout(p=0.1, inplace=False)
      )
      (ls1): Identity()
      (drop_path1): DropPath(drop_prob=0.014)
      (norm2): LayerNorm((128,), eps=1e-05, elementwise_affine=True)
      (mlp): Mlp(
        (fc1): Linear(in_features=128, out_features=512, bias=True)
        (act): GELU(approximate='none')
        (drop1): Dropout(p=0.1, inplace=False)
        (norm): Identity()
        (fc2): Linear(in_features=512, out_features=128, bias=True)
        (drop2): Dropout(p=0.1, inplace=False)
      )
      (ls2): Identity()
      (drop_path2): DropPath(drop_prob=0.014)
    )
    (2): Block(
      (norm1): LayerNorm((128,), eps=1e-05, elementwise_affine=True)
      (attn): Attention(
        (qkv): Linear(in_features=128, out_features=384, bias=True)
        (q_norm): Identity()
        (k_norm): Identity()
        (attn_drop): Dropout(p=0.1, inplace=False)
        (proj): Linear(in_features=128, out_features=128, bias=True)
        (proj_drop): Dropout(p=0.1, inplace=False)
      )
      (ls1): Identity()
      (drop_path1): DropPath(drop_prob=0.029)
      (norm2): LayerNorm((128,), eps=1e-05, elementwise_affine=True)
      (mlp): Mlp(
        (fc1): Linear(in_features=128, out_features=512, bias=True)
        (act): GELU(approximate='none')
        (drop1): Dropout(p=0.1, inplace=False)
        (norm): Identity()
        (fc2): Linear(in_features=512, out_features=128, bias=True)
        (drop2): Dropout(p=0.1, inplace=False)
      )
      (ls2): Identity()
      (drop_path2): DropPath(drop_prob=0.029)
    )
    (3): Block(
      (norm1): LayerNorm((128,), eps=1e-05, elementwise_affine=True)
      (attn): Attention(
        (qkv): Linear(in_features=128, out_features=384, bias=True)
        (q_norm): Identity()
        (k_norm): Identity()
        (attn_drop): Dropout(p=0.1, inplace=False)
        (proj): Linear(in_features=128, out_features=128, bias=True)
        (proj_drop): Dropout(p=0.1, inplace=False)
      )
      (ls1): Identity()
      (drop_path1): DropPath(drop_prob=0.043)
      (norm2): LayerNorm((128,), eps=1e-05, elementwise_affine=True)
      (mlp): Mlp(
        (fc1): Linear(in_features=128, out_features=512, bias=True)
        (act): GELU(approximate='none')
        (drop1): Dropout(p=0.1, inplace=False)
        (norm): Identity()
        (fc2): Linear(in_features=512, out_features=128, bias=True)
        (drop2): Dropout(p=0.1, inplace=False)
      )
      (ls2): Identity()
      (drop_path2): DropPath(drop_prob=0.043)
    )
    (4): Block(
      (norm1): LayerNorm((128,), eps=1e-05, elementwise_affine=True)
      (attn): Attention(

[net] full module tree:
 Res_Slim_ViT(
  (patch_embed): PatchEmbed(
    (proj): Conv2d(126, 128, kernel_size=(2, 2), stride=(2, 2))
    (norm): Identity()
  )
  (pos_drop): Dropout(p=0.1, inplace=False)
  (blocks): ModuleList(
    (0): Block(
      (norm1): LayerNorm((128,), eps=1e-05, elementwise_affine=True)
      (attn): Attention(
        (qkv): Linear(in_features=128, out_features=384, bias=True)
        (q_norm): Identity()
        (k_norm): Identity()
        (attn_drop): Dropout(p=0.1, inplace=False)
        (proj): Linear(in_features=128, out_features=128, bias=True)
        (proj_drop): Dropout(p=0.1, inplace=False)
      )
      (ls1): Identity()
      (drop_path1): Identity()
      (norm2): LayerNorm((128,), eps=1e-05, elementwise_affine=True)
      (mlp): Mlp(
        (fc1): Linear(in_features=128, out_features=512, bias=True)
        (act): GELU(approximate='none')
        (drop1): Dropout(p=0.1, inplace=False)
        (norm): Identity()
        (fc2): Linear(in_features=512, out_features=128, bias=True)
        (drop2): Dropout(p=0.1, inplace=False)
      )
      (ls2): Identity()
      (drop_path2): Identity()
    )
    (1): Block(
      (norm1): LayerNorm((128,), eps=1e-05, elementwise_affine=True)
      (attn): Attention(
        (qkv): Linear(in_features=128, out_features=384, bias=True)
        (q_norm): Identity()
        (k_norm): Identity()
        (attn_drop): Dropout(p=0.1, inplace=False)
        (proj): Linear(in_features=128, out_features=128, bias=True)
        (proj_drop): Dropout(p=0.1, inplace=False)
      )
      (ls1): Identity()
      (drop_path1): DropPath(drop_prob=0.014)
      (norm2): LayerNorm((128,), eps=1e-05, elementwise_affine=True)
      (mlp): Mlp(
        (fc1): Linear(in_features=128, out_features=512, bias=True)
        (act): GELU(approximate='none')
        (drop1): Dropout(p=0.1, inplace=False)
        (norm): Identity()
        (fc2): Linear(in_features=512, out_features=128, bias=True)
        (drop2): Dropout(p=0.1, inplace=False)
      )
      (ls2): Identity()
      (drop_path2): DropPath(drop_prob=0.014)
    )
    (2): Block(
      (norm1): LayerNorm((128,), eps=1e-05, elementwise_affine=True)
      (attn): Attention(
        (qkv): Linear(in_features=128, out_features=384, bias=True)
        (q_norm): Identity()
        (k_norm): Identity()
        (attn_drop): Dropout(p=0.1, inplace=False)
        (proj): Linear(in_features=128, out_features=128, bias=True)
        (proj_drop): Dropout(p=0.1, inplace=False)
      )
      (ls1): Identity()
      (drop_path1): DropPath(drop_prob=0.029)
      (norm2): LayerNorm((128,), eps=1e-05, elementwise_affine=True)
      (mlp): Mlp(
        (fc1): Linear(in_features=128, out_features=512, bias=True)
        (act): GELU(approximate='none')
        (drop1): Dropout(p=0.1, inplace=False)
        (norm): Identity()
        (fc2): Linear(in_features=512, out_features=128, bias=True)
        (drop2): Dropout(p=0.1, inplace=False)
      )
      (ls2): Identity()
      (drop_path2): DropPath(drop_prob=0.029)
    )
    (3): Block(
      (norm1): LayerNorm((128,), eps=1e-05, elementwise_affine=True)
      (attn): Attention(
        (qkv): Linear(in_features=128, out_features=384, bias=True)
        (q_norm): Identity()
        (k_norm): Identity()
        (attn_drop): Dropout(p=0.1, inplace=False)
        (proj): Linear(in_features=128, out_features=128, bias=True)
        (proj_drop): Dropout(p=0.1, inplace=False)
      )
      (ls1): Identity()
      (drop_path1): DropPath(drop_prob=0.043)
      (norm2): LayerNorm((128,), eps=1e-05, elementwise_affine=True)
      (mlp): Mlp(
        (fc1): Linear(in_features=128, out_features=512, bias=True)
        (act): GELU(approximate='none')
        (drop1): Dropout(p=0.1, inplace=False)
        (norm): Identity()
        (fc2): Linear(in_features=512, out_features=128, bias=True)
        (drop2): Dropout(p=0.1, inplace=False)
      )
      (ls2): Identity()
      (drop_path2): DropPath(drop_prob=0.043)
    )
    (4): Block(
      (norm1): LayerNorm((128,), eps=1e-05, elementwise_affine=True)
      (attn): Attention(
        (qkv): Linear(in_features=128, out_features=384, bias=True)
        (q_norm): Identity()
        (k_norm): Identity()
        (attn_drop): Dropout(p=0.1, inplace=False)
        (proj): Linear(in_features=128, out_features=128, bias=True)
        (proj_drop): Dropout(p=0.1, inplace=False)
      )
      (ls1): Identity()
      (drop_path1): DropPath(drop_prob=0.057)
      (norm2): LayerNorm((128,), eps=1e-05, elementwise_affine=True)
      (mlp): Mlp(
        (fc1): Linear(in_features=128, out_features=512, bias=True)
        (act): GELU(approximate='none')
        (drop1): Dropout(p=0.1, inplace=False)
        (norm): Identity()
        (fc2): Linear(in_features=512, out_features=128, bias=True)
        (drop2): Dropout(p=0.1, inplace=False)
      )
      (ls2): Identity()
      (drop_path2): DropPath(drop_prob=0.057)
    )
    (5): Block(
      (norm1): LayerNorm((128,), eps=1e-05, elementwise_affine=True)
      (attn): Attention(
        (qkv): Linear(in_features=128, out_features=384, bias=True)
        (q_norm): Identity()
        (k_norm): Identity()
        (attn_drop): Dropout(p=0.1, inplace=False)
        (proj): Linear(in_features=128, out_features=128, bias=True)
        (proj_drop): Dropout(p=0.1, inplace=False)
      )
      (ls1): Identity()
      (drop_path1): DropPath(drop_prob=0.071)
      (norm2): LayerNorm((128,), eps=1e-05, elementwise_affine=True)
      (mlp): Mlp(
        (fc1): Linear(in_features=128, out_features=512, bias=True)
        (act): GELU(approximate='none')
        (drop1): Dropout(p=0.1, inplace=False)
        (norm): Identity()
        (fc2): Linear(in_features=512, out_features=128, bias=True)
        (drop2): Dropout(p=0.1, inplace=False)
      )
      (ls2): Identity()
      (drop_path2): DropPath(drop_prob=0.071)
    )
    (6): Block(
      (norm1): LayerNorm((128,), eps=1e-05, elementwise_affine=True)
      (attn): Attention(
        (qkv): Linear(in_features=128, out_features=384, bias=True)
        (q_norm): Identity()
        (k_norm): Identity()
        (attn_drop): Dropout(p=0.1, inplace=False)
        (proj): Linear(in_features=128, out_features=128, bias=True)
        (proj_drop): Dropout(p=0.1, inplace=False)
      )
      (ls1): Identity()
      (drop_path1): DropPath(drop_prob=0.086)
      (norm2): LayerNorm((128,), eps=1e-05, elementwise_affine=True)
      (mlp): Mlp(
        (fc1): Linear(in_features=128, out_features=512, bias=True)
        (act): GELU(approximate='none')
        (drop1): Dropout(p=0.1, inplace=False)
        (norm): Identity()
        (fc2): Linear(in_features=512, out_features=128, bias=True)
        (drop2): Dropout(p=0.1, inplace=False)
      )
      (ls2): Identity()
      (drop_path2): DropPath(drop_prob=0.086)
    )
    (7): Block(
      (norm1): LayerNorm((128,), eps=1e-05, elementwise_affine=True)
      (attn): Attention(
        (qkv): Linear(in_features=128, out_features=384, bias=True)
        (q_norm): Identity()
        (k_norm): Identity()
        (attn_drop): Dropout(p=0.1, inplace=False)
        (proj): Linear(in_features=128, out_features=128, bias=True)
        (proj_drop): Dropout(p=0.1, inplace=False)
      )
      (ls1): Identity()
      (drop_path1): DropPath(drop_prob=0.100)
      (norm2): LayerNorm((128,), eps=1e-05, elementwise_affine=True)
      (mlp): Mlp(
        (fc1): Linear(in_features=128, out_features=512, bias=True)
        (act): GELU(approximate='none')
        (drop1): Dropout(p=0.1, inplace=False)
        (norm): Identity()
        (fc2): Linear(in_features=512, out_features=128, bias=True)
        (drop2): Dropout(p=0.1, inplace=False)
      )
      (ls2): Identity()
      (drop_path2): DropPath(drop_prob=0.100)
    )
  )
  (norm): LayerNorm((128,), eps=1e-05, elementwise_affine=True)
  (path2): Sequential(
    (0): Conv2d(126, 4, kernel_size=(3, 3), stride=(1, 1), padding=(1, 1))
    (1): GELU(approximate='none')
    (2): PixelShuffle(upscale_factor=1)
    (3): Conv2d(4, 6, kernel_size=(3, 3), stride=(1, 1), padding=(1, 1))
  )
  (path1): Sequential(
        (qkv): Linear(in_features=128, out_features=384, bias=True)
        (q_norm): Identity()
        (k_norm): Identity()
        (attn_drop): Dropout(p=0.1, inplace=False)
        (proj): Linear(in_features=128, out_features=128, bias=True)
        (proj_drop): Dropout(p=0.1, inplace=False)
      )
      (ls1): Identity()
      (drop_path1): DropPath(drop_prob=0.057)
      (norm2): LayerNorm((128,), eps=1e-05, elementwise_affine=True)
      (mlp): Mlp(
        (fc1): Linear(in_features=128, out_features=512, bias=True)
        (act): GELU(approximate='none')
        (drop1): Dropout(p=0.1, inplace=False)
        (norm): Identity()
        (fc2): Linear(in_features=512, out_features=128, bias=True)
        (drop2): Dropout(p=0.1, inplace=False)
      )
      (ls2): Identity()
      (drop_path2): DropPath(drop_prob=0.057)
    )
    (5): Block(
      (norm1): LayerNorm((128,), eps=1e-05, elementwise_affine=True)
      (attn): Attention(
        (qkv): Linear(in_features=128, out_features=384, bias=True)
        (q_norm): Identity()
        (k_norm): Identity()
        (attn_drop): Dropout(p=0.1, inplace=False)
        (proj): Linear(in_features=128, out_features=128, bias=True)
        (proj_drop): Dropout(p=0.1, inplace=False)
      )
      (ls1): Identity()
      (drop_path1): DropPath(drop_prob=0.071)
      (norm2): LayerNorm((128,), eps=1e-05, elementwise_affine=True)
      (mlp): Mlp(
        (fc1): Linear(in_features=128, out_features=512, bias=True)
        (act): GELU(approximate='none')
        (drop1): Dropout(p=0.1, inplace=False)
        (norm): Identity()
        (fc2): Linear(in_features=512, out_features=128, bias=True)
        (drop2): Dropout(p=0.1, inplace=False)
      )
      (ls2): Identity()
      (drop_path2): DropPath(drop_prob=0.071)
    )
    (6): Block(
      (norm1): LayerNorm((128,), eps=1e-05, elementwise_affine=True)
      (attn): Attention(
        (qkv): Linear(in_features=128, out_features=384, bias=True)
        (q_norm): Identity()
        (k_norm): Identity()
        (attn_drop): Dropout(p=0.1, inplace=False)
        (proj): Linear(in_features=128, out_features=128, bias=True)
        (proj_drop): Dropout(p=0.1, inplace=False)
      )
      (ls1): Identity()
      (drop_path1): DropPath(drop_prob=0.086)
      (norm2): LayerNorm((128,), eps=1e-05, elementwise_affine=True)
      (mlp): Mlp(
        (fc1): Linear(in_features=128, out_features=512, bias=True)
        (act): GELU(approximate='none')
        (drop1): Dropout(p=0.1, inplace=False)
        (norm): Identity()
        (fc2): Linear(in_features=512, out_features=128, bias=True)
        (drop2): Dropout(p=0.1, inplace=False)
      )
      (ls2): Identity()
      (drop_path2): DropPath(drop_prob=0.086)
    )
    (7): Block(
      (norm1): LayerNorm((128,), eps=1e-05, elementwise_affine=True)
      (attn): Attention(
        (qkv): Linear(in_features=128, out_features=384, bias=True)
        (q_norm): Identity()
        (k_norm): Identity()
        (attn_drop): Dropout(p=0.1, inplace=False)
        (proj): Linear(in_features=128, out_features=128, bias=True)
        (proj_drop): Dropout(p=0.1, inplace=False)
      )
      (ls1): Identity()
      (drop_path1): DropPath(drop_prob=0.100)
      (norm2): LayerNorm((128,), eps=1e-05, elementwise_affine=True)
      (mlp): Mlp(
        (fc1): Linear(in_features=128, out_features=512, bias=True)
        (act): GELU(approximate='none')
        (drop1): Dropout(p=0.1, inplace=False)
        (norm): Identity()
        (fc2): Linear(in_features=512, out_features=128, bias=True)
        (drop2): Dropout(p=0.1, inplace=False)
      )
      (ls2): Identity()
      (drop_path2): DropPath(drop_prob=0.100)
    )
  )
  (norm): LayerNorm((128,), eps=1e-05, elementwise_affine=True)
  (path2): Sequential(
    (0): Conv2d(126, 4, kernel_size=(3, 3), stride=(1, 1), padding=(1, 1))
    (1): GELU(approximate='none')
    (2): PixelShuffle(upscale_factor=1)
    (3): Conv2d(4, 6, kernel_size=(3, 3), stride=(1, 1), padding=(1, 1))
  )
  (path1): Sequential(
    (0): Conv2d(6, 4, kernel_size=(3, 3), stride=(1, 1), padding=(1, 1))
    (1): GELU(approximate='none')
    (2): PixelShuffle(upscale_factor=1)
    (3): Conv2d(4, 6, kernel_size=(3, 3), stride=(1, 1), padding=(1, 1))
  )
  (to_img): Linear(in_features=128, out_features=24, bias=True)
  (head): Sequential(
    (0): Linear(in_features=64, out_features=64, bias=True)
    (1): GELU(approximate='none')
    (2): Linear(in_features=64, out_features=64, bias=True)
    (3): GELU(approximate='none')
    (4): Linear(in_features=64, out_features=64, bias=True)
  )
)

[net] key attrs: {'in_channels': 126, 'out_channels': 6, 'img_size': (32, 64), 'patch_size': 2, 'cnn_ratio': 4, 'superres_factor': 1}
[net] pos_embed.shape: (1, 512, 128)
[net] patch_embed.proj.weight: (128, 126, 2, 2)
[net] patch_embed.proj.bias:   (128,)
    (0): Conv2d(6, 4, kernel_size=(3, 3), stride=(1, 1), padding=(1, 1))
    (1): GELU(approximate='none')
    (2): PixelShuffle(upscale_factor=1)
    (3): Conv2d(4, 6, kernel_size=(3, 3), stride=(1, 1), padding=(1, 1))
  )
  (to_img): Linear(in_features=128, out_features=24, bias=True)
  (head): Sequential(
    (0): Linear(in_features=64, out_features=64, bias=True)
    (1): GELU(approximate='none')
    (2): Linear(in_features=64, out_features=64, bias=True)
    (3): GELU(approximate='none')
    (4): Linear(in_features=64, out_features=64, bias=True)
  )
)

[net] key attrs: {'in_channels': 126, 'out_channels': 6, 'img_size': (32, 64), 'patch_size': 2, 'cnn_ratio': 4, 'superres_factor': 1}
[net] pos_embed.shape: (1, 512, 128)
[net] patch_embed.proj.weight: (128, 126, 2, 2)
[net] patch_embed.proj.bias:   (128,)
[rank: 4] Seed set to 0
[rank: 6] Seed set to 0
 Res_Slim_ViT(
  (patch_embed): PatchEmbed(
    (proj): Conv2d(126, 128, kernel_size=(2, 2), stride=(2, 2))
    (norm): Identity()
  )
  (pos_drop): Dropout(p=0.1, inplace=False)
  (blocks): ModuleList(
    (0): Block(
      (norm1): LayerNorm((128,), eps=1e-05, elementwise_affine=True)
      (attn): Attention(
        (qkv): Linear(in_features=128, out_features=384, bias=True)
        (q_norm): Identity()
        (k_norm): Identity()
        (attn_drop): Dropout(p=0.1, inplace=False)
        (proj): Linear(in_features=128, out_features=128, bias=True)
        (proj_drop): Dropout(p=0.1, inplace=False)
      )
      (ls1): Identity()
      (drop_path1): Identity()
      (norm2): LayerNorm((128,), eps=1e-05, elementwise_affine=True)
      (mlp): Mlp(
        (fc1): Linear(in_features=128, out_features=512, bias=True)
        (act): GELU(approximate='none')
        (drop1): Dropout(p=0.1, inplace=False)
        (norm): Identity()
        (fc2): Linear(in_features=512, out_features=128, bias=True)
        (drop2): Dropout(p=0.1, inplace=False)
      )
      (ls2): Identity()
      (drop_path2): Identity()
    )
    (1): Block(
      (norm1): LayerNorm((128,), eps=1e-05, elementwise_affine=True)
      (attn): Attention(
        (qkv): Linear(in_features=128, out_features=384, bias=True)
        (q_norm): Identity()
        (k_norm): Identity()
        (attn_drop): Dropout(p=0.1, inplace=False)
        (proj): Linear(in_features=128, out_features=128, bias=True)
        (proj_drop): Dropout(p=0.1, inplace=False)
      )
      (ls1): Identity()
      (drop_path1): DropPath(drop_prob=0.014)
      (norm2): LayerNorm((128,), eps=1e-05, elementwise_affine=True)
      (mlp): Mlp(
        (fc1): Linear(in_features=128, out_features=512, bias=True)
        (act): GELU(approximate='none')
        (drop1): Dropout(p=0.1, inplace=False)
        (norm): Identity()
        (fc2): Linear(in_features=512, out_features=128, bias=True)
        (drop2): Dropout(p=0.1, inplace=False)
      )
      (ls2): Identity()
      (drop_path2): DropPath(drop_prob=0.014)
    )
    (2): Block(
      (norm1): LayerNorm((128,), eps=1e-05, elementwise_affine=True)
      (attn): Attention(
        (qkv): Linear(in_features=128, out_features=384, bias=True)
        (q_norm): Identity()
        (k_norm): Identity()
        (attn_drop): Dropout(p=0.1, inplace=False)
        (proj): Linear(in_features=128, out_features=128, bias=True)
        (proj_drop): Dropout(p=0.1, inplace=False)
      )
      (ls1): Identity()
      (drop_path1): DropPath(drop_prob=0.029)
      (norm2): LayerNorm((128,), eps=1e-05, elementwise_affine=True)
      (mlp): Mlp(
        (fc1): Linear(in_features=128, out_features=512, bias=True)
        (act): GELU(approximate='none')
        (drop1): Dropout(p=0.1, inplace=False)
        (norm): Identity()
        (fc2): Linear(in_features=512, out_features=128, bias=True)
        (drop2): Dropout(p=0.1, inplace=False)
      )
      (ls2): Identity()
      (drop_path2): DropPath(drop_prob=0.029)
    )
    (3): Block(
      (norm1): LayerNorm((128,), eps=1e-05, elementwise_affine=True)
      (attn): Attention(
        (qkv): Linear(in_features=128, out_features=384, bias=True)
        (q_norm): Identity()
        (k_norm): Identity()
        (attn_drop): Dropout(p=0.1, inplace=False)
        (proj): Linear(in_features=128, out_features=128, bias=True)
        (proj_drop): Dropout(p=0.1, inplace=False)
      )
      (ls1): Identity()
      (drop_path1): DropPath(drop_prob=0.043)
      (norm2): LayerNorm((128,), eps=1e-05, elementwise_affine=True)
      (mlp): Mlp(
        (fc1): Linear(in_features=128, out_features=512, bias=True)
        (act): GELU(approximate='none')
        (drop1): Dropout(p=0.1, inplace=False)
        (norm): Identity()
        (fc2): Linear(in_features=512, out_features=128, bias=True)
        (drop2): Dropout(p=0.1, inplace=False)
      )
      (ls2): Identity()
      (drop_path2): DropPath(drop_prob=0.043)
    )
    (4): Block(
      (norm1): LayerNorm((128,), eps=1e-05, elementwise_affine=True)
      (attn): Attention(
        (qkv): Linear(in_features=128, out_features=384, bias=True)
        (q_norm): Identity()
        (k_norm): Identity()
        (attn_drop): Dropout(p=0.1, inplace=False)
        (proj): Linear(in_features=128, out_features=128, bias=True)
        (proj_drop): Dropout(p=0.1, inplace=False)
      )
      (ls1): Identity()
      (drop_path1): DropPath(drop_prob=0.057)
      (norm2): LayerNorm((128,), eps=1e-05, elementwise_affine=True)
      (mlp): Mlp(
        (fc1): Linear(in_features=128, out_features=512, bias=True)
        (act): GELU(approximate='none')
        (drop1): Dropout(p=0.1, inplace=False)
        (norm): Identity()
        (fc2): Linear(in_features=512, out_features=128, bias=True)
        (drop2): Dropout(p=0.1, inplace=False)
      )
      (ls2): Identity()
      (drop_path2): DropPath(drop_prob=0.057)
    )
    (5): Block(
      (norm1): LayerNorm((128,), eps=1e-05, elementwise_affine=True)
      (attn): Attention(
        (qkv): Linear(in_features=128, out_features=384, bias=True)
        (q_norm): Identity()
        (k_norm): Identity()
        (attn_drop): Dropout(p=0.1, inplace=False)
        (proj): Linear(in_features=128, out_features=128, bias=True)
        (proj_drop): Dropout(p=0.1, inplace=False)
      )
      (ls1): Identity()
      (drop_path1): DropPath(drop_prob=0.071)
      (norm2): LayerNorm((128,), eps=1e-05, elementwise_affine=True)
      (mlp): Mlp(
        (fc1): Linear(in_features=128, out_features=512, bias=True)
        (act): GELU(approximate='none')
        (drop1): Dropout(p=0.1, inplace=False)
        (norm): Identity()
        (fc2): Linear(in_features=512, out_features=128, bias=True)
        (drop2): Dropout(p=0.1, inplace=False)
      )
      (ls2): Identity()
      (drop_path2): DropPath(drop_prob=0.071)
    )
    (6): Block(
      (norm1): LayerNorm((128,), eps=1e-05, elementwise_affine=True)
      (attn): Attention(
        (qkv): Linear(in_features=128, out_features=384, bias=True)
        (q_norm): Identity()
        (k_norm): Identity()
        (attn_drop): Dropout(p=0.1, inplace=False)
        (proj): Linear(in_features=128, out_features=128, bias=True)
        (proj_drop): Dropout(p=0.1, inplace=False)
      )
      (ls1): Identity()
      (drop_path1): DropPath(drop_prob=0.086)
      (norm2): LayerNorm((128,), eps=1e-05, elementwise_affine=True)
      (mlp): Mlp(
        (fc1): Linear(in_features=128, out_features=512, bias=True)
        (act): GELU(approximate='none')
        (drop1): Dropout(p=0.1, inplace=False)
        (norm): Identity()
        (fc2): Linear(in_features=512, out_features=128, bias=True)
        (drop2): Dropout(p=0.1, inplace=False)
      )
      (ls2): Identity()
      (drop_path2): DropPath(drop_prob=0.086)
    )
    (7): Block(
      (norm1): LayerNorm((128,), eps=1e-05, elementwise_affine=True)
      (attn): Attention(
        (qkv): Linear(in_features=128, out_features=384, bias=True)
        (q_norm): Identity()
        (k_norm): Identity()
        (attn_drop): Dropout(p=0.1, inplace=False)
        (proj): Linear(in_features=128, out_features=128, bias=True)
        (proj_drop): Dropout(p=0.1, inplace=False)
      )
      (ls1): Identity()
      (drop_path1): DropPath(drop_prob=0.100)
      (norm2): LayerNorm((128,), eps=1e-05, elementwise_affine=True)
      (mlp): Mlp(
        (fc1): Linear(in_features=128, out_features=512, bias=True)
        (act): GELU(approximate='none')
        (drop1): Dropout(p=0.1, inplace=False)
        (norm): Identity()
        (fc2): Linear(in_features=512, out_features=128, bias=True)
        (drop2): Dropout(p=0.1, inplace=False)
      )
      (ls2): Identity()
      (drop_path2): DropPath(drop_prob=0.100)
    )
  )
  (norm): LayerNorm((128,), eps=1e-05, elementwise_affine=True)
  (path2): Sequential(
    (0): Conv2d(126, 4, kernel_size=(3, 3), stride=(1, 1), padding=(1, 1))
    (1): GELU(approximate='none')
    (2): PixelShuffle(upscale_factor=1)
    (3): Conv2d(4, 6, kernel_size=(3, 3), stride=(1, 1), padding=(1, 1))
  )
  (path1): Sequential(
    (0): Conv2d(6, 4, kernel_size=(3, 3), stride=(1, 1), padding=(1, 1))
    (1): GELU(approximate='none')
    (2): PixelShuffle(upscale_factor=1)
    (3): Conv2d(4, 6, kernel_size=(3, 3), stride=(1, 1), padding=(1, 1))
  )
  (to_img): Linear(in_features=128, out_features=24, bias=True)
  (head): Sequential(
    (0): Linear(in_features=64, out_features=64, bias=True)
    (1): GELU(approximate='none')
    (2): Linear(in_features=64, out_features=64, bias=True)
    (3): GELU(approximate='none')
    (4): Linear(in_features=64, out_features=64, bias=True)
  )
)

[net] key attrs: {'in_channels': 126, 'out_channels': 6, 'img_size': (32, 64), 'patch_size': 2, 'cnn_ratio': 4, 'superres_factor': 1}
[net] pos_embed.shape: (1, 512, 128)
 Res_Slim_ViT(
  (patch_embed): PatchEmbed(
    (proj): Conv2d(126, 128, kernel_size=(2, 2), stride=(2, 2))
    (norm): Identity()
  )
  (pos_drop): Dropout(p=0.1, inplace=False)
  (blocks): ModuleList(
    (0): Block(
      (norm1): LayerNorm((128,), eps=1e-05, elementwise_affine=True)
      (attn): Attention(
        (qkv): Linear(in_features=128, out_features=384, bias=True)
        (q_norm): Identity()
        (k_norm): Identity()
        (attn_drop): Dropout(p=0.1, inplace=False)
        (proj): Linear(in_features=128, out_features=128, bias=True)
        (proj_drop): Dropout(p=0.1, inplace=False)
      )
      (ls1): Identity()
      (drop_path1): Identity()
      (norm2): LayerNorm((128,), eps=1e-05, elementwise_affine=True)
      (mlp): Mlp(
        (fc1): Linear(in_features=128, out_features=512, bias=True)
        (act): GELU(approximate='none')
        (drop1): Dropout(p=0.1, inplace=False)
        (norm): Identity()
        (fc2): Linear(in_features=512, out_features=128, bias=True)
        (drop2): Dropout(p=0.1, inplace=False)
      )
      (ls2): Identity()
      (drop_path2): Identity()
    )
    (1): Block(
      (norm1): LayerNorm((128,), eps=1e-05, elementwise_affine=True)
      (attn): Attention(
        (qkv): Linear(in_features=128, out_features=384, bias=True)
        (q_norm): Identity()
        (k_norm): Identity()
        (attn_drop): Dropout(p=0.1, inplace=False)
        (proj): Linear(in_features=128, out_features=128, bias=True)
        (proj_drop): Dropout(p=0.1, inplace=False)
      )
      (ls1): Identity()
      (drop_path1): DropPath(drop_prob=0.014)
      (norm2): LayerNorm((128,), eps=1e-05, elementwise_affine=True)
      (mlp): Mlp(
        (fc1): Linear(in_features=128, out_features=512, bias=True)
        (act): GELU(approximate='none')
        (drop1): Dropout(p=0.1, inplace=False)
        (norm): Identity()
        (fc2): Linear(in_features=512, out_features=128, bias=True)
        (drop2): Dropout(p=0.1, inplace=False)
      )
      (ls2): Identity()
      (drop_path2): DropPath(drop_prob=0.014)
    )
    (2): Block(
      (norm1): LayerNorm((128,), eps=1e-05, elementwise_affine=True)
      (attn): Attention(
        (qkv): Linear(in_features=128, out_features=384, bias=True)
        (q_norm): Identity()
        (k_norm): Identity()
        (attn_drop): Dropout(p=0.1, inplace=False)
        (proj): Linear(in_features=128, out_features=128, bias=True)
        (proj_drop): Dropout(p=0.1, inplace=False)
      )
      (ls1): Identity()
      (drop_path1): DropPath(drop_prob=0.029)
      (norm2): LayerNorm((128,), eps=1e-05, elementwise_affine=True)
      (mlp): Mlp(
        (fc1): Linear(in_features=128, out_features=512, bias=True)
        (act): GELU(approximate='none')
        (drop1): Dropout(p=0.1, inplace=False)
        (norm): Identity()
        (fc2): Linear(in_features=512, out_features=128, bias=True)
        (drop2): Dropout(p=0.1, inplace=False)
      )
      (ls2): Identity()
      (drop_path2): DropPath(drop_prob=0.029)
    )
    (3): Block(
      (norm1): LayerNorm((128,), eps=1e-05, elementwise_affine=True)
      (attn): Attention(
        (qkv): Linear(in_features=128, out_features=384, bias=True)
        (q_norm): Identity()
        (k_norm): Identity()
        (attn_drop): Dropout(p=0.1, inplace=False)
        (proj): Linear(in_features=128, out_features=128, bias=True)
        (proj_drop): Dropout(p=0.1, inplace=False)
      )
      (ls1): Identity()
      (drop_path1): DropPath(drop_prob=0.043)
      (norm2): LayerNorm((128,), eps=1e-05, elementwise_affine=True)
      (mlp): Mlp(
        (fc1): Linear(in_features=128, out_features=512, bias=True)
        (act): GELU(approximate='none')
        (drop1): Dropout(p=0.1, inplace=False)
        (norm): Identity()
        (fc2): Linear(in_features=512, out_features=128, bias=True)
        (drop2): Dropout(p=0.1, inplace=False)
      )
      (ls2): Identity()
      (drop_path2): DropPath(drop_prob=0.043)
    )
    (4): Block(
      (norm1): LayerNorm((128,), eps=1e-05, elementwise_affine=True)
      (attn): Attention(
[net] patch_embed.proj.weight: (128, 126, 2, 2)
[net] patch_embed.proj.bias:   (128,)
        (qkv): Linear(in_features=128, out_features=384, bias=True)
        (q_norm): Identity()
        (k_norm): Identity()
        (attn_drop): Dropout(p=0.1, inplace=False)
        (proj): Linear(in_features=128, out_features=128, bias=True)
        (proj_drop): Dropout(p=0.1, inplace=False)
      )
      (ls1): Identity()
      (drop_path1): DropPath(drop_prob=0.057)
      (norm2): LayerNorm((128,), eps=1e-05, elementwise_affine=True)
      (mlp): Mlp(
        (fc1): Linear(in_features=128, out_features=512, bias=True)
        (act): GELU(approximate='none')
        (drop1): Dropout(p=0.1, inplace=False)
        (norm): Identity()
        (fc2): Linear(in_features=512, out_features=128, bias=True)
        (drop2): Dropout(p=0.1, inplace=False)
      )
      (ls2): Identity()
      (drop_path2): DropPath(drop_prob=0.057)
    )
    (5): Block(
      (norm1): LayerNorm((128,), eps=1e-05, elementwise_affine=True)
      (attn): Attention(
        (qkv): Linear(in_features=128, out_features=384, bias=True)
        (q_norm): Identity()
        (k_norm): Identity()
        (attn_drop): Dropout(p=0.1, inplace=False)
        (proj): Linear(in_features=128, out_features=128, bias=True)
        (proj_drop): Dropout(p=0.1, inplace=False)
      )
      (ls1): Identity()
      (drop_path1): DropPath(drop_prob=0.071)
      (norm2): LayerNorm((128,), eps=1e-05, elementwise_affine=True)
      (mlp): Mlp(
        (fc1): Linear(in_features=128, out_features=512, bias=True)
        (act): GELU(approximate='none')
        (drop1): Dropout(p=0.1, inplace=False)
        (norm): Identity()
        (fc2): Linear(in_features=512, out_features=128, bias=True)
        (drop2): Dropout(p=0.1, inplace=False)
      )
      (ls2): Identity()
      (drop_path2): DropPath(drop_prob=0.071)
    )
    (6): Block(
      (norm1): LayerNorm((128,), eps=1e-05, elementwise_affine=True)
      (attn): Attention(
        (qkv): Linear(in_features=128, out_features=384, bias=True)
        (q_norm): Identity()
        (k_norm): Identity()
        (attn_drop): Dropout(p=0.1, inplace=False)
        (proj): Linear(in_features=128, out_features=128, bias=True)
        (proj_drop): Dropout(p=0.1, inplace=False)
      )
      (ls1): Identity()
      (drop_path1): DropPath(drop_prob=0.086)
      (norm2): LayerNorm((128,), eps=1e-05, elementwise_affine=True)
      (mlp): Mlp(
        (fc1): Linear(in_features=128, out_features=512, bias=True)
        (act): GELU(approximate='none')
        (drop1): Dropout(p=0.1, inplace=False)
        (norm): Identity()
        (fc2): Linear(in_features=512, out_features=128, bias=True)
        (drop2): Dropout(p=0.1, inplace=False)
      )
      (ls2): Identity()
      (drop_path2): DropPath(drop_prob=0.086)
    )
    (7): Block(
      (norm1): LayerNorm((128,), eps=1e-05, elementwise_affine=True)
      (attn): Attention(
        (qkv): Linear(in_features=128, out_features=384, bias=True)
        (q_norm): Identity()
        (k_norm): Identity()
        (attn_drop): Dropout(p=0.1, inplace=False)
        (proj): Linear(in_features=128, out_features=128, bias=True)
        (proj_drop): Dropout(p=0.1, inplace=False)
      )
      (ls1): Identity()
      (drop_path1): DropPath(drop_prob=0.100)
      (norm2): LayerNorm((128,), eps=1e-05, elementwise_affine=True)
      (mlp): Mlp(
        (fc1): Linear(in_features=128, out_features=512, bias=True)
        (act): GELU(approximate='none')
        (drop1): Dropout(p=0.1, inplace=False)
        (norm): Identity()
        (fc2): Linear(in_features=512, out_features=128, bias=True)
        (drop2): Dropout(p=0.1, inplace=False)
      )
      (ls2): Identity()
      (drop_path2): DropPath(drop_prob=0.100)
    )
  )
  (norm): LayerNorm((128,), eps=1e-05, elementwise_affine=True)
  (path2): Sequential(
    (0): Conv2d(126, 4, kernel_size=(3, 3), stride=(1, 1), padding=(1, 1))
    (1): GELU(approximate='none')
    (2): PixelShuffle(upscale_factor=1)
    (3): Conv2d(4, 6, kernel_size=(3, 3), stride=(1, 1), padding=(1, 1))
  )
  (path1): Sequential(
    (0): Conv2d(6, 4, kernel_size=(3, 3), stride=(1, 1), padding=(1, 1))
    (1): GELU(approximate='none')
    (2): PixelShuffle(upscale_factor=1)
    (3): Conv2d(4, 6, kernel_size=(3, 3), stride=(1, 1), padding=(1, 1))
  )
  (to_img): Linear(in_features=128, out_features=24, bias=True)
  (head): Sequential(
    (0): Linear(in_features=64, out_features=64, bias=True)
    (1): GELU(approximate='none')
    (2): Linear(in_features=64, out_features=64, bias=True)
    (3): GELU(approximate='none')
    (4): Linear(in_features=64, out_features=64, bias=True)
  )
)

[net] key attrs: {'in_channels': 126, 'out_channels': 6, 'img_size': (32, 64), 'patch_size': 2, 'cnn_ratio': 4, 'superres_factor': 1}
[net] pos_embed.shape: (1, 512, 128)
[net] patch_embed.proj.weight: (128, 126, 2, 2)
 Res_Slim_ViT(
  (patch_embed): PatchEmbed(
    (proj): Conv2d(126, 128, kernel_size=(2, 2), stride=(2, 2))
    (norm): Identity()
  )
  (pos_drop): Dropout(p=0.1, inplace=False)
  (blocks): ModuleList(
    (0): Block(
      (norm1): LayerNorm((128,), eps=1e-05, elementwise_affine=True)
      (attn): Attention(
        (qkv): Linear(in_features=128, out_features=384, bias=True)
        (q_norm): Identity()
        (k_norm): Identity()
        (attn_drop): Dropout(p=0.1, inplace=False)
        (proj): Linear(in_features=128, out_features=128, bias=True)
        (proj_drop): Dropout(p=0.1, inplace=False)
      )
      (ls1): Identity()
      (drop_path1): Identity()
      (norm2): LayerNorm((128,), eps=1e-05, elementwise_affine=True)
      (mlp): Mlp(
        (fc1): Linear(in_features=128, out_features=512, bias=True)
        (act): GELU(approximate='none')
        (drop1): Dropout(p=0.1, inplace=False)
        (norm): Identity()
        (fc2): Linear(in_features=512, out_features=128, bias=True)
        (drop2): Dropout(p=0.1, inplace=False)
      )
      (ls2): Identity()
      (drop_path2): Identity()
    )
    (1): Block(
      (norm1): LayerNorm((128,), eps=1e-05, elementwise_affine=True)
      (attn): Attention(
        (qkv): Linear(in_features=128, out_features=384, bias=True)
        (q_norm): Identity()
        (k_norm): Identity()
        (attn_drop): Dropout(p=0.1, inplace=False)
        (proj): Linear(in_features=128, out_features=128, bias=True)
        (proj_drop): Dropout(p=0.1, inplace=False)
      )
      (ls1): Identity()
      (drop_path1): DropPath(drop_prob=0.014)
      (norm2): LayerNorm((128,), eps=1e-05, elementwise_affine=True)
      (mlp): Mlp(
        (fc1): Linear(in_features=128, out_features=512, bias=True)
        (act): GELU(approximate='none')
        (drop1): Dropout(p=0.1, inplace=False)
        (norm): Identity()
        (fc2): Linear(in_features=512, out_features=128, bias=True)
        (drop2): Dropout(p=0.1, inplace=False)
      )
      (ls2): Identity()
      (drop_path2): DropPath(drop_prob=0.014)
    )
    (2): Block(
      (norm1): LayerNorm((128,), eps=1e-05, elementwise_affine=True)
      (attn): Attention(
        (qkv): Linear(in_features=128, out_features=384, bias=True)
        (q_norm): Identity()
        (k_norm): Identity()
        (attn_drop): Dropout(p=0.1, inplace=False)
        (proj): Linear(in_features=128, out_features=128, bias=True)
        (proj_drop): Dropout(p=0.1, inplace=False)
      )
      (ls1): Identity()
      (drop_path1): DropPath(drop_prob=0.029)
      (norm2): LayerNorm((128,), eps=1e-05, elementwise_affine=True)
      (mlp): Mlp(
        (fc1): Linear(in_features=128, out_features=512, bias=True)
        (act): GELU(approximate='none')
        (drop1): Dropout(p=0.1, inplace=False)
        (norm): Identity()
        (fc2): Linear(in_features=512, out_features=128, bias=True)
        (drop2): Dropout(p=0.1, inplace=False)
      )
      (ls2): Identity()
      (drop_path2): DropPath(drop_prob=0.029)
    )
    (3): Block(
      (norm1): LayerNorm((128,), eps=1e-05, elementwise_affine=True)
      (attn): Attention(
        (qkv): Linear(in_features=128, out_features=384, bias=True)
        (q_norm): Identity()
        (k_norm): Identity()
        (attn_drop): Dropout(p=0.1, inplace=False)
        (proj): Linear(in_features=128, out_features=128, bias=True)
        (proj_drop): Dropout(p=0.1, inplace=False)
      )
      (ls1): Identity()
      (drop_path1): DropPath(drop_prob=0.043)
      (norm2): LayerNorm((128,), eps=1e-05, elementwise_affine=True)
      (mlp): Mlp(
        (fc1): Linear(in_features=128, out_features=512, bias=True)
        (act): GELU(approximate='none')
        (drop1): Dropout(p=0.1, inplace=False)
        (norm): Identity()
        (fc2): Linear(in_features=512, out_features=128, bias=True)
        (drop2): Dropout(p=0.1, inplace=False)
      )
      (ls2): Identity()
      (drop_path2): DropPath(drop_prob=0.043)
    )
    (4): Block(
      (norm1): LayerNorm((128,), eps=1e-05, elementwise_affine=True)
      (attn): Attention(
[net] patch_embed.proj.bias:   (128,)
[rank: 5] Seed set to 0
        (qkv): Linear(in_features=128, out_features=384, bias=True)
        (q_norm): Identity()
        (k_norm): Identity()
        (attn_drop): Dropout(p=0.1, inplace=False)
        (proj): Linear(in_features=128, out_features=128, bias=True)
        (proj_drop): Dropout(p=0.1, inplace=False)
      )
      (ls1): Identity()
      (drop_path1): DropPath(drop_prob=0.057)
      (norm2): LayerNorm((128,), eps=1e-05, elementwise_affine=True)
      (mlp): Mlp(
        (fc1): Linear(in_features=128, out_features=512, bias=True)
        (act): GELU(approximate='none')
        (drop1): Dropout(p=0.1, inplace=False)
        (norm): Identity()
        (fc2): Linear(in_features=512, out_features=128, bias=True)
        (drop2): Dropout(p=0.1, inplace=False)
      )
      (ls2): Identity()
      (drop_path2): DropPath(drop_prob=0.057)
    )
    (5): Block(
      (norm1): LayerNorm((128,), eps=1e-05, elementwise_affine=True)
      (attn): Attention(
        (qkv): Linear(in_features=128, out_features=384, bias=True)
        (q_norm): Identity()
        (k_norm): Identity()
        (attn_drop): Dropout(p=0.1, inplace=False)
        (proj): Linear(in_features=128, out_features=128, bias=True)
        (proj_drop): Dropout(p=0.1, inplace=False)
      )
      (ls1): Identity()
      (drop_path1): DropPath(drop_prob=0.071)
      (norm2): LayerNorm((128,), eps=1e-05, elementwise_affine=True)
      (mlp): Mlp(
        (fc1): Linear(in_features=128, out_features=512, bias=True)
        (act): GELU(approximate='none')
        (drop1): Dropout(p=0.1, inplace=False)
        (norm): Identity()
        (fc2): Linear(in_features=512, out_features=128, bias=True)
        (drop2): Dropout(p=0.1, inplace=False)
      )
      (ls2): Identity()
      (drop_path2): DropPath(drop_prob=0.071)
    )
    (6): Block(
      (norm1): LayerNorm((128,), eps=1e-05, elementwise_affine=True)
      (attn): Attention(
        (qkv): Linear(in_features=128, out_features=384, bias=True)
        (q_norm): Identity()
        (k_norm): Identity()
        (attn_drop): Dropout(p=0.1, inplace=False)
        (proj): Linear(in_features=128, out_features=128, bias=True)
        (proj_drop): Dropout(p=0.1, inplace=False)
      )
      (ls1): Identity()
      (drop_path1): DropPath(drop_prob=0.086)
      (norm2): LayerNorm((128,), eps=1e-05, elementwise_affine=True)
      (mlp): Mlp(
        (fc1): Linear(in_features=128, out_features=512, bias=True)
        (act): GELU(approximate='none')
        (drop1): Dropout(p=0.1, inplace=False)
        (norm): Identity()
        (fc2): Linear(in_features=512, out_features=128, bias=True)
        (drop2): Dropout(p=0.1, inplace=False)
      )
      (ls2): Identity()
      (drop_path2): DropPath(drop_prob=0.086)
    )
    (7): Block(
      (norm1): LayerNorm((128,), eps=1e-05, elementwise_affine=True)
      (attn): Attention(
        (qkv): Linear(in_features=128, out_features=384, bias=True)
        (q_norm): Identity()
        (k_norm): Identity()
        (attn_drop): Dropout(p=0.1, inplace=False)
        (proj): Linear(in_features=128, out_features=128, bias=True)
        (proj_drop): Dropout(p=0.1, inplace=False)
      )
      (ls1): Identity()
      (drop_path1): DropPath(drop_prob=0.100)
      (norm2): LayerNorm((128,), eps=1e-05, elementwise_affine=True)
      (mlp): Mlp(
        (fc1): Linear(in_features=128, out_features=512, bias=True)
        (act): GELU(approximate='none')
        (drop1): Dropout(p=0.1, inplace=False)
        (norm): Identity()
        (fc2): Linear(in_features=512, out_features=128, bias=True)
        (drop2): Dropout(p=0.1, inplace=False)
      )
      (ls2): Identity()
      (drop_path2): DropPath(drop_prob=0.100)
    )
  )
  (norm): LayerNorm((128,), eps=1e-05, elementwise_affine=True)
  (path2): Sequential(
    (0): Conv2d(126, 4, kernel_size=(3, 3), stride=(1, 1), padding=(1, 1))
    (1): GELU(approximate='none')
    (2): PixelShuffle(upscale_factor=1)
    (3): Conv2d(4, 6, kernel_size=(3, 3), stride=(1, 1), padding=(1, 1))
  )
  (path1): Sequential(
    (0): Conv2d(6, 4, kernel_size=(3, 3), stride=(1, 1), padding=(1, 1))
    (1): GELU(approximate='none')
    (2): PixelShuffle(upscale_factor=1)
    (3): Conv2d(4, 6, kernel_size=(3, 3), stride=(1, 1), padding=(1, 1))
  )
  (to_img): Linear(in_features=128, out_features=24, bias=True)
  (head): Sequential(
    (0): Linear(in_features=64, out_features=64, bias=True)
    (1): GELU(approximate='none')
    (2): Linear(in_features=64, out_features=64, bias=True)
    (3): GELU(approximate='none')
    (4): Linear(in_features=64, out_features=64, bias=True)
  )
)

[net] key attrs: {'in_channels': 126, 'out_channels': 6, 'img_size': (32, 64), 'patch_size': 2, 'cnn_ratio': 4, 'superres_factor': 1}
[net] pos_embed.shape: (1, 512, 128)
[net] patch_embed.proj.weight: (128, 126, 2, 2)
[rank: 3] Seed set to 0
[net] patch_embed.proj.bias:   (128,)
 Res_Slim_ViT(
  (patch_embed): PatchEmbed(
    (proj): Conv2d(126, 128, kernel_size=(2, 2), stride=(2, 2))
    (norm): Identity()
  )
  (pos_drop): Dropout(p=0.1, inplace=False)
  (blocks): ModuleList(
    (0): Block(
      (norm1): LayerNorm((128,), eps=1e-05, elementwise_affine=True)
      (attn): Attention(
        (qkv): Linear(in_features=128, out_features=384, bias=True)
        (q_norm): Identity()
        (k_norm): Identity()
        (attn_drop): Dropout(p=0.1, inplace=False)
        (proj): Linear(in_features=128, out_features=128, bias=True)
        (proj_drop): Dropout(p=0.1, inplace=False)
      )
      (ls1): Identity()
      (drop_path1): Identity()
      (norm2): LayerNorm((128,), eps=1e-05, elementwise_affine=True)
      (mlp): Mlp(
        (fc1): Linear(in_features=128, out_features=512, bias=True)
        (act): GELU(approximate='none')
        (drop1): Dropout(p=0.1, inplace=False)
        (norm): Identity()
        (fc2): Linear(in_features=512, out_features=128, bias=True)
        (drop2): Dropout(p=0.1, inplace=False)
      )
      (ls2): Identity()
      (drop_path2): Identity()
    )
    (1): Block(
      (norm1): LayerNorm((128,), eps=1e-05, elementwise_affine=True)
      (attn): Attention(
        (qkv): Linear(in_features=128, out_features=384, bias=True)
        (q_norm): Identity()
        (k_norm): Identity()
        (attn_drop): Dropout(p=0.1, inplace=False)
        (proj): Linear(in_features=128, out_features=128, bias=True)
        (proj_drop): Dropout(p=0.1, inplace=False)
      )
      (ls1): Identity()
      (drop_path1): DropPath(drop_prob=0.014)
      (norm2): LayerNorm((128,), eps=1e-05, elementwise_affine=True)
      (mlp): Mlp(
        (fc1): Linear(in_features=128, out_features=512, bias=True)
        (act): GELU(approximate='none')
        (drop1): Dropout(p=0.1, inplace=False)
        (norm): Identity()
        (fc2): Linear(in_features=512, out_features=128, bias=True)
        (drop2): Dropout(p=0.1, inplace=False)
      )
      (ls2): Identity()
      (drop_path2): DropPath(drop_prob=0.014)
    )
    (2): Block(
      (norm1): LayerNorm((128,), eps=1e-05, elementwise_affine=True)
      (attn): Attention(
        (qkv): Linear(in_features=128, out_features=384, bias=True)
        (q_norm): Identity()
        (k_norm): Identity()
        (attn_drop): Dropout(p=0.1, inplace=False)
        (proj): Linear(in_features=128, out_features=128, bias=True)
        (proj_drop): Dropout(p=0.1, inplace=False)
      )
      (ls1): Identity()
      (drop_path1): DropPath(drop_prob=0.029)
      (norm2): LayerNorm((128,), eps=1e-05, elementwise_affine=True)
      (mlp): Mlp(
        (fc1): Linear(in_features=128, out_features=512, bias=True)
        (act): GELU(approximate='none')
        (drop1): Dropout(p=0.1, inplace=False)
        (norm): Identity()
        (fc2): Linear(in_features=512, out_features=128, bias=True)
        (drop2): Dropout(p=0.1, inplace=False)
      )
      (ls2): Identity()
      (drop_path2): DropPath(drop_prob=0.029)
    )
    (3): Block(
      (norm1): LayerNorm((128,), eps=1e-05, elementwise_affine=True)
      (attn): Attention(
        (qkv): Linear(in_features=128, out_features=384, bias=True)
        (q_norm): Identity()
        (k_norm): Identity()
        (attn_drop): Dropout(p=0.1, inplace=False)
        (proj): Linear(in_features=128, out_features=128, bias=True)
        (proj_drop): Dropout(p=0.1, inplace=False)
      )
      (ls1): Identity()
      (drop_path1): DropPath(drop_prob=0.043)
      (norm2): LayerNorm((128,), eps=1e-05, elementwise_affine=True)
      (mlp): Mlp(
        (fc1): Linear(in_features=128, out_features=512, bias=True)
        (act): GELU(approximate='none')
        (drop1): Dropout(p=0.1, inplace=False)
        (norm): Identity()
        (fc2): Linear(in_features=512, out_features=128, bias=True)
        (drop2): Dropout(p=0.1, inplace=False)
      )
      (ls2): Identity()
      (drop_path2): DropPath(drop_prob=0.043)
    )
    (4): Block(
      (norm1): LayerNorm((128,), eps=1e-05, elementwise_affine=True)
      (attn): Attention(
        (qkv): Linear(in_features=128, out_features=384, bias=True)
        (q_norm): Identity()
        (k_norm): Identity()
        (attn_drop): Dropout(p=0.1, inplace=False)
        (proj): Linear(in_features=128, out_features=128, bias=True)
        (proj_drop): Dropout(p=0.1, inplace=False)
      )
      (ls1): Identity()
      (drop_path1): DropPath(drop_prob=0.057)
      (norm2): LayerNorm((128,), eps=1e-05, elementwise_affine=True)
      (mlp): Mlp(
        (fc1): Linear(in_features=128, out_features=512, bias=True)
        (act): GELU(approximate='none')
        (drop1): Dropout(p=0.1, inplace=False)
        (norm): Identity()
        (fc2): Linear(in_features=512, out_features=128, bias=True)
        (drop2): Dropout(p=0.1, inplace=False)
      )
      (ls2): Identity()
      (drop_path2): DropPath(drop_prob=0.057)
    )
    (5): Block(
      (norm1): LayerNorm((128,), eps=1e-05, elementwise_affine=True)
      (attn): Attention(
        (qkv): Linear(in_features=128, out_features=384, bias=True)
        (q_norm): Identity()
        (k_norm): Identity()
        (attn_drop): Dropout(p=0.1, inplace=False)
        (proj): Linear(in_features=128, out_features=128, bias=True)
        (proj_drop): Dropout(p=0.1, inplace=False)
      )
      (ls1): Identity()
      (drop_path1): DropPath(drop_prob=0.071)
      (norm2): LayerNorm((128,), eps=1e-05, elementwise_affine=True)
      (mlp): Mlp(
        (fc1): Linear(in_features=128, out_features=512, bias=True)
        (act): GELU(approximate='none')
        (drop1): Dropout(p=0.1, inplace=False)
        (norm): Identity()
        (fc2): Linear(in_features=512, out_features=128, bias=True)
        (drop2): Dropout(p=0.1, inplace=False)
      )
      (ls2): Identity()
      (drop_path2): DropPath(drop_prob=0.071)
    )
    (6): Block(
      (norm1): LayerNorm((128,), eps=1e-05, elementwise_affine=True)
      (attn): Attention(
        (qkv): Linear(in_features=128, out_features=384, bias=True)
        (q_norm): Identity()
        (k_norm): Identity()
        (attn_drop): Dropout(p=0.1, inplace=False)
        (proj): Linear(in_features=128, out_features=128, bias=True)
        (proj_drop): Dropout(p=0.1, inplace=False)
      )
      (ls1): Identity()
      (drop_path1): DropPath(drop_prob=0.086)
      (norm2): LayerNorm((128,), eps=1e-05, elementwise_affine=True)
      (mlp): Mlp(
        (fc1): Linear(in_features=128, out_features=512, bias=True)
        (act): GELU(approximate='none')
        (drop1): Dropout(p=0.1, inplace=False)
        (norm): Identity()
        (fc2): Linear(in_features=512, out_features=128, bias=True)
        (drop2): Dropout(p=0.1, inplace=False)
      )
      (ls2): Identity()
      (drop_path2): DropPath(drop_prob=0.086)
    )
    (7): Block(
      (norm1): LayerNorm((128,), eps=1e-05, elementwise_affine=True)
      (attn): Attention(
        (qkv): Linear(in_features=128, out_features=384, bias=True)
        (q_norm): Identity()
        (k_norm): Identity()
        (attn_drop): Dropout(p=0.1, inplace=False)
        (proj): Linear(in_features=128, out_features=128, bias=True)
        (proj_drop): Dropout(p=0.1, inplace=False)
      )
      (ls1): Identity()
      (drop_path1): DropPath(drop_prob=0.100)
      (norm2): LayerNorm((128,), eps=1e-05, elementwise_affine=True)
      (mlp): Mlp(
        (fc1): Linear(in_features=128, out_features=512, bias=True)
        (act): GELU(approximate='none')
        (drop1): Dropout(p=0.1, inplace=False)
        (norm): Identity()
        (fc2): Linear(in_features=512, out_features=128, bias=True)
        (drop2): Dropout(p=0.1, inplace=False)
      )
      (ls2): Identity()
      (drop_path2): DropPath(drop_prob=0.100)
    )
  )
  (norm): LayerNorm((128,), eps=1e-05, elementwise_affine=True)
  (path2): Sequential(
    (0): Conv2d(126, 4, kernel_size=(3, 3), stride=(1, 1), padding=(1, 1))
    (1): GELU(approximate='none')
    (2): PixelShuffle(upscale_factor=1)
    (3): Conv2d(4, 6, kernel_size=(3, 3), stride=(1, 1), padding=(1, 1))
  )
  (path1): Sequential(
    (0): Conv2d(6, 4, kernel_size=(3, 3), stride=(1, 1), padding=(1, 1))
    (1): GELU(approximate='none')
    (2): PixelShuffle(upscale_factor=1)
    (3): Conv2d(4, 6, kernel_size=(3, 3), stride=(1, 1), padding=(1, 1))
  )
  (to_img): Linear(in_features=128, out_features=24, bias=True)
  (head): Sequential(
    (0): Linear(in_features=64, out_features=64, bias=True)
    (1): GELU(approximate='none')
    (2): Linear(in_features=64, out_features=64, bias=True)
    (3): GELU(approximate='none')
    (4): Linear(in_features=64, out_features=64, bias=True)
  )
)

[net] key attrs: {'in_channels': 126, 'out_channels': 6, 'img_size': (32, 64), 'patch_size': 2, 'cnn_ratio': 4, 'superres_factor': 1}
[rank: 7] Seed set to 0
[net] pos_embed.shape: (1, 512, 128)
 Res_Slim_ViT(
  (patch_embed): PatchEmbed(
    (proj): Conv2d(126, 128, kernel_size=(2, 2), stride=(2, 2))
    (norm): Identity()
  )
  (pos_drop): Dropout(p=0.1, inplace=False)
  (blocks): ModuleList(
    (0): Block(
      (norm1): LayerNorm((128,), eps=1e-05, elementwise_affine=True)
      (attn): Attention(
        (qkv): Linear(in_features=128, out_features=384, bias=True)
        (q_norm): Identity()
        (k_norm): Identity()
        (attn_drop): Dropout(p=0.1, inplace=False)
        (proj): Linear(in_features=128, out_features=128, bias=True)
        (proj_drop): Dropout(p=0.1, inplace=False)
      )
      (ls1): Identity()
      (drop_path1): Identity()
      (norm2): LayerNorm((128,), eps=1e-05, elementwise_affine=True)
      (mlp): Mlp(
        (fc1): Linear(in_features=128, out_features=512, bias=True)
        (act): GELU(approximate='none')
        (drop1): Dropout(p=0.1, inplace=False)
        (norm): Identity()
        (fc2): Linear(in_features=512, out_features=128, bias=True)
        (drop2): Dropout(p=0.1, inplace=False)
      )
      (ls2): Identity()
      (drop_path2): Identity()
    )
    (1): Block(
      (norm1): LayerNorm((128,), eps=1e-05, elementwise_affine=True)
      (attn): Attention(
        (qkv): Linear(in_features=128, out_features=384, bias=True)
        (q_norm): Identity()
        (k_norm): Identity()
        (attn_drop): Dropout(p=0.1, inplace=False)
        (proj): Linear(in_features=128, out_features=128, bias=True)
        (proj_drop): Dropout(p=0.1, inplace=False)
      )
      (ls1): Identity()
      (drop_path1): DropPath(drop_prob=0.014)
      (norm2): LayerNorm((128,), eps=1e-05, elementwise_affine=True)
      (mlp): Mlp(
        (fc1): Linear(in_features=128, out_features=512, bias=True)
        (act): GELU(approximate='none')
        (drop1): Dropout(p=0.1, inplace=False)
        (norm): Identity()
        (fc2): Linear(in_features=512, out_features=128, bias=True)
        (drop2): Dropout(p=0.1, inplace=False)
      )
      (ls2): Identity()
      (drop_path2): DropPath(drop_prob=0.014)
    )
    (2): Block(
      (norm1): LayerNorm((128,), eps=1e-05, elementwise_affine=True)
      (attn): Attention(
        (qkv): Linear(in_features=128, out_features=384, bias=True)
        (q_norm): Identity()
        (k_norm): Identity()
        (attn_drop): Dropout(p=0.1, inplace=False)
        (proj): Linear(in_features=128, out_features=128, bias=True)
        (proj_drop): Dropout(p=0.1, inplace=False)
      )
      (ls1): Identity()
      (drop_path1): DropPath(drop_prob=0.029)
      (norm2): LayerNorm((128,), eps=1e-05, elementwise_affine=True)
      (mlp): Mlp(
        (fc1): Linear(in_features=128, out_features=512, bias=True)
        (act): GELU(approximate='none')
        (drop1): Dropout(p=0.1, inplace=False)
        (norm): Identity()
        (fc2): Linear(in_features=512, out_features=128, bias=True)
        (drop2): Dropout(p=0.1, inplace=False)
      )
      (ls2): Identity()
      (drop_path2): DropPath(drop_prob=0.029)
    )
    (3): Block(
      (norm1): LayerNorm((128,), eps=1e-05, elementwise_affine=True)
      (attn): Attention(
        (qkv): Linear(in_features=128, out_features=384, bias=True)
        (q_norm): Identity()
        (k_norm): Identity()
        (attn_drop): Dropout(p=0.1, inplace=False)
        (proj): Linear(in_features=128, out_features=128, bias=True)
        (proj_drop): Dropout(p=0.1, inplace=False)
      )
      (ls1): Identity()
      (drop_path1): DropPath(drop_prob=0.043)
      (norm2): LayerNorm((128,), eps=1e-05, elementwise_affine=True)
      (mlp): Mlp(
        (fc1): Linear(in_features=128, out_features=512, bias=True)
        (act): GELU(approximate='none')
        (drop1): Dropout(p=0.1, inplace=False)
        (norm): Identity()
        (fc2): Linear(in_features=512, out_features=128, bias=True)
        (drop2): Dropout(p=0.1, inplace=False)
      )
      (ls2): Identity()
      (drop_path2): DropPath(drop_prob=0.043)
    )
    (4): Block(
      (norm1): LayerNorm((128,), eps=1e-05, elementwise_affine=True)
      (attn): Attention(
[net] patch_embed.proj.weight: (128, 126, 2, 2)
[net] patch_embed.proj.bias:   (128,)
        (qkv): Linear(in_features=128, out_features=384, bias=True)
        (q_norm): Identity()
        (k_norm): Identity()
        (attn_drop): Dropout(p=0.1, inplace=False)
        (proj): Linear(in_features=128, out_features=128, bias=True)
        (proj_drop): Dropout(p=0.1, inplace=False)
      )
      (ls1): Identity()
      (drop_path1): DropPath(drop_prob=0.057)
      (norm2): LayerNorm((128,), eps=1e-05, elementwise_affine=True)
      (mlp): Mlp(
        (fc1): Linear(in_features=128, out_features=512, bias=True)
        (act): GELU(approximate='none')
        (drop1): Dropout(p=0.1, inplace=False)
        (norm): Identity()
        (fc2): Linear(in_features=512, out_features=128, bias=True)
        (drop2): Dropout(p=0.1, inplace=False)
      )
      (ls2): Identity()
      (drop_path2): DropPath(drop_prob=0.057)
    )
    (5): Block(
      (norm1): LayerNorm((128,), eps=1e-05, elementwise_affine=True)
      (attn): Attention(
        (qkv): Linear(in_features=128, out_features=384, bias=True)
        (q_norm): Identity()
        (k_norm): Identity()
        (attn_drop): Dropout(p=0.1, inplace=False)
        (proj): Linear(in_features=128, out_features=128, bias=True)
        (proj_drop): Dropout(p=0.1, inplace=False)
      )
      (ls1): Identity()
      (drop_path1): DropPath(drop_prob=0.071)
      (norm2): LayerNorm((128,), eps=1e-05, elementwise_affine=True)
      (mlp): Mlp(
        (fc1): Linear(in_features=128, out_features=512, bias=True)
        (act): GELU(approximate='none')
        (drop1): Dropout(p=0.1, inplace=False)
        (norm): Identity()
        (fc2): Linear(in_features=512, out_features=128, bias=True)
        (drop2): Dropout(p=0.1, inplace=False)
      )
      (ls2): Identity()
      (drop_path2): DropPath(drop_prob=0.071)
    )
    (6): Block(
      (norm1): LayerNorm((128,), eps=1e-05, elementwise_affine=True)
      (attn): Attention(
        (qkv): Linear(in_features=128, out_features=384, bias=True)
        (q_norm): Identity()
        (k_norm): Identity()
        (attn_drop): Dropout(p=0.1, inplace=False)
        (proj): Linear(in_features=128, out_features=128, bias=True)
        (proj_drop): Dropout(p=0.1, inplace=False)
      )
      (ls1): Identity()
      (drop_path1): DropPath(drop_prob=0.086)
      (norm2): LayerNorm((128,), eps=1e-05, elementwise_affine=True)
      (mlp): Mlp(
        (fc1): Linear(in_features=128, out_features=512, bias=True)
        (act): GELU(approximate='none')
        (drop1): Dropout(p=0.1, inplace=False)
        (norm): Identity()
        (fc2): Linear(in_features=512, out_features=128, bias=True)
        (drop2): Dropout(p=0.1, inplace=False)
      )
      (ls2): Identity()
      (drop_path2): DropPath(drop_prob=0.086)
    )
    (7): Block(
      (norm1): LayerNorm((128,), eps=1e-05, elementwise_affine=True)
      (attn): Attention(
        (qkv): Linear(in_features=128, out_features=384, bias=True)
        (q_norm): Identity()
        (k_norm): Identity()
        (attn_drop): Dropout(p=0.1, inplace=False)
        (proj): Linear(in_features=128, out_features=128, bias=True)
        (proj_drop): Dropout(p=0.1, inplace=False)
      )
      (ls1): Identity()
      (drop_path1): DropPath(drop_prob=0.100)
      (norm2): LayerNorm((128,), eps=1e-05, elementwise_affine=True)
      (mlp): Mlp(
        (fc1): Linear(in_features=128, out_features=512, bias=True)
        (act): GELU(approximate='none')
        (drop1): Dropout(p=0.1, inplace=False)
        (norm): Identity()
        (fc2): Linear(in_features=512, out_features=128, bias=True)
        (drop2): Dropout(p=0.1, inplace=False)
      )
      (ls2): Identity()
      (drop_path2): DropPath(drop_prob=0.100)
    )
  )
  (norm): LayerNorm((128,), eps=1e-05, elementwise_affine=True)
  (path2): Sequential(
    (0): Conv2d(126, 4, kernel_size=(3, 3), stride=(1, 1), padding=(1, 1))
    (1): GELU(approximate='none')
    (2): PixelShuffle(upscale_factor=1)
    (3): Conv2d(4, 6, kernel_size=(3, 3), stride=(1, 1), padding=(1, 1))
  )
  (path1): Sequential(
 Res_Slim_ViT(
  (patch_embed): PatchEmbed(
    (proj): Conv2d(126, 128, kernel_size=(2, 2), stride=(2, 2))
    (norm): Identity()
  )
  (pos_drop): Dropout(p=0.1, inplace=False)
  (blocks): ModuleList(
    (0): Block(
      (norm1): LayerNorm((128,), eps=1e-05, elementwise_affine=True)
      (attn): Attention(
        (qkv): Linear(in_features=128, out_features=384, bias=True)
        (q_norm): Identity()
        (k_norm): Identity()
        (attn_drop): Dropout(p=0.1, inplace=False)
        (proj): Linear(in_features=128, out_features=128, bias=True)
        (proj_drop): Dropout(p=0.1, inplace=False)
      )
      (ls1): Identity()
      (drop_path1): Identity()
      (norm2): LayerNorm((128,), eps=1e-05, elementwise_affine=True)
      (mlp): Mlp(
        (fc1): Linear(in_features=128, out_features=512, bias=True)
        (act): GELU(approximate='none')
        (drop1): Dropout(p=0.1, inplace=False)
        (norm): Identity()
        (fc2): Linear(in_features=512, out_features=128, bias=True)
        (drop2): Dropout(p=0.1, inplace=False)
      )
      (ls2): Identity()
      (drop_path2): Identity()
    )
    (1): Block(
      (norm1): LayerNorm((128,), eps=1e-05, elementwise_affine=True)
      (attn): Attention(
        (qkv): Linear(in_features=128, out_features=384, bias=True)
        (q_norm): Identity()
        (k_norm): Identity()
        (attn_drop): Dropout(p=0.1, inplace=False)
        (proj): Linear(in_features=128, out_features=128, bias=True)
        (proj_drop): Dropout(p=0.1, inplace=False)
      )
      (ls1): Identity()
      (drop_path1): DropPath(drop_prob=0.014)
      (norm2): LayerNorm((128,), eps=1e-05, elementwise_affine=True)
      (mlp): Mlp(
        (fc1): Linear(in_features=128, out_features=512, bias=True)
        (act): GELU(approximate='none')
        (drop1): Dropout(p=0.1, inplace=False)
        (norm): Identity()
        (fc2): Linear(in_features=512, out_features=128, bias=True)
        (drop2): Dropout(p=0.1, inplace=False)
      )
      (ls2): Identity()
      (drop_path2): DropPath(drop_prob=0.014)
    )
    (2): Block(
      (norm1): LayerNorm((128,), eps=1e-05, elementwise_affine=True)
      (attn): Attention(
        (qkv): Linear(in_features=128, out_features=384, bias=True)
        (q_norm): Identity()
        (k_norm): Identity()
        (attn_drop): Dropout(p=0.1, inplace=False)
        (proj): Linear(in_features=128, out_features=128, bias=True)
        (proj_drop): Dropout(p=0.1, inplace=False)
      )
      (ls1): Identity()
      (drop_path1): DropPath(drop_prob=0.029)
      (norm2): LayerNorm((128,), eps=1e-05, elementwise_affine=True)
      (mlp): Mlp(
        (fc1): Linear(in_features=128, out_features=512, bias=True)
        (act): GELU(approximate='none')
        (drop1): Dropout(p=0.1, inplace=False)
        (norm): Identity()
        (fc2): Linear(in_features=512, out_features=128, bias=True)
        (drop2): Dropout(p=0.1, inplace=False)
      )
      (ls2): Identity()
      (drop_path2): DropPath(drop_prob=0.029)
    )
    (3): Block(
      (norm1): LayerNorm((128,), eps=1e-05, elementwise_affine=True)
      (attn): Attention(
        (qkv): Linear(in_features=128, out_features=384, bias=True)
        (q_norm): Identity()
        (k_norm): Identity()
        (attn_drop): Dropout(p=0.1, inplace=False)
        (proj): Linear(in_features=128, out_features=128, bias=True)
        (proj_drop): Dropout(p=0.1, inplace=False)
      )
      (ls1): Identity()
      (drop_path1): DropPath(drop_prob=0.043)
      (norm2): LayerNorm((128,), eps=1e-05, elementwise_affine=True)
      (mlp): Mlp(
        (fc1): Linear(in_features=128, out_features=512, bias=True)
        (act): GELU(approximate='none')
        (drop1): Dropout(p=0.1, inplace=False)
        (norm): Identity()
        (fc2): Linear(in_features=512, out_features=128, bias=True)
        (drop2): Dropout(p=0.1, inplace=False)
      )
      (ls2): Identity()
      (drop_path2): DropPath(drop_prob=0.043)
    )
    (4): Block(
      (norm1): LayerNorm((128,), eps=1e-05, elementwise_affine=True)
      (attn): Attention(
    (0): Conv2d(6, 4, kernel_size=(3, 3), stride=(1, 1), padding=(1, 1))
    (1): GELU(approximate='none')
    (2): PixelShuffle(upscale_factor=1)
    (3): Conv2d(4, 6, kernel_size=(3, 3), stride=(1, 1), padding=(1, 1))
  )
  (to_img): Linear(in_features=128, out_features=24, bias=True)
  (head): Sequential(
    (0): Linear(in_features=64, out_features=64, bias=True)
    (1): GELU(approximate='none')
    (2): Linear(in_features=64, out_features=64, bias=True)
    (3): GELU(approximate='none')
    (4): Linear(in_features=64, out_features=64, bias=True)
  )
)

[net] key attrs: {'in_channels': 126, 'out_channels': 6, 'img_size': (32, 64), 'patch_size': 2, 'cnn_ratio': 4, 'superres_factor': 1}
[net] pos_embed.shape: (1, 512, 128)
[net] patch_embed.proj.weight: (128, 126, 2, 2)
[net] patch_embed.proj.bias:   (128,)
[rank: 0] Seed set to 0
        (qkv): Linear(in_features=128, out_features=384, bias=True)
        (q_norm): Identity()
        (k_norm): Identity()
        (attn_drop): Dropout(p=0.1, inplace=False)
        (proj): Linear(in_features=128, out_features=128, bias=True)
        (proj_drop): Dropout(p=0.1, inplace=False)
      )
      (ls1): Identity()
      (drop_path1): DropPath(drop_prob=0.057)
      (norm2): LayerNorm((128,), eps=1e-05, elementwise_affine=True)
      (mlp): Mlp(
        (fc1): Linear(in_features=128, out_features=512, bias=True)
        (act): GELU(approximate='none')
        (drop1): Dropout(p=0.1, inplace=False)
        (norm): Identity()
        (fc2): Linear(in_features=512, out_features=128, bias=True)
        (drop2): Dropout(p=0.1, inplace=False)
      )
      (ls2): Identity()
      (drop_path2): DropPath(drop_prob=0.057)
    )
    (5): Block(
      (norm1): LayerNorm((128,), eps=1e-05, elementwise_affine=True)
      (attn): Attention(
        (qkv): Linear(in_features=128, out_features=384, bias=True)
        (q_norm): Identity()
        (k_norm): Identity()
        (attn_drop): Dropout(p=0.1, inplace=False)
        (proj): Linear(in_features=128, out_features=128, bias=True)
        (proj_drop): Dropout(p=0.1, inplace=False)
      )
      (ls1): Identity()
      (drop_path1): DropPath(drop_prob=0.071)
      (norm2): LayerNorm((128,), eps=1e-05, elementwise_affine=True)
      (mlp): Mlp(
        (fc1): Linear(in_features=128, out_features=512, bias=True)
        (act): GELU(approximate='none')
        (drop1): Dropout(p=0.1, inplace=False)
        (norm): Identity()
        (fc2): Linear(in_features=512, out_features=128, bias=True)
        (drop2): Dropout(p=0.1, inplace=False)
      )
      (ls2): Identity()
      (drop_path2): DropPath(drop_prob=0.071)
    )
    (6): Block(
      (norm1): LayerNorm((128,), eps=1e-05, elementwise_affine=True)
      (attn): Attention(
        (qkv): Linear(in_features=128, out_features=384, bias=True)
        (q_norm): Identity()
        (k_norm): Identity()
        (attn_drop): Dropout(p=0.1, inplace=False)
        (proj): Linear(in_features=128, out_features=128, bias=True)
        (proj_drop): Dropout(p=0.1, inplace=False)
      )
      (ls1): Identity()
      (drop_path1): DropPath(drop_prob=0.086)
      (norm2): LayerNorm((128,), eps=1e-05, elementwise_affine=True)
      (mlp): Mlp(
        (fc1): Linear(in_features=128, out_features=512, bias=True)
        (act): GELU(approximate='none')
        (drop1): Dropout(p=0.1, inplace=False)
        (norm): Identity()
        (fc2): Linear(in_features=512, out_features=128, bias=True)
        (drop2): Dropout(p=0.1, inplace=False)
      )
      (ls2): Identity()
      (drop_path2): DropPath(drop_prob=0.086)
    )
    (7): Block(
      (norm1): LayerNorm((128,), eps=1e-05, elementwise_affine=True)
      (attn): Attention(
        (qkv): Linear(in_features=128, out_features=384, bias=True)
        (q_norm): Identity()
        (k_norm): Identity()
        (attn_drop): Dropout(p=0.1, inplace=False)
        (proj): Linear(in_features=128, out_features=128, bias=True)
        (proj_drop): Dropout(p=0.1, inplace=False)
      )
      (ls1): Identity()
      (drop_path1): DropPath(drop_prob=0.100)
      (norm2): LayerNorm((128,), eps=1e-05, elementwise_affine=True)
      (mlp): Mlp(
        (fc1): Linear(in_features=128, out_features=512, bias=True)
        (act): GELU(approximate='none')
        (drop1): Dropout(p=0.1, inplace=False)
        (norm): Identity()
        (fc2): Linear(in_features=512, out_features=128, bias=True)
        (drop2): Dropout(p=0.1, inplace=False)
      )
      (ls2): Identity()
      (drop_path2): DropPath(drop_prob=0.100)
    )
  )
  (norm): LayerNorm((128,), eps=1e-05, elementwise_affine=True)
  (path2): Sequential(
    (0): Conv2d(126, 4, kernel_size=(3, 3), stride=(1, 1), padding=(1, 1))
    (1): GELU(approximate='none')
    (2): PixelShuffle(upscale_factor=1)
    (3): Conv2d(4, 6, kernel_size=(3, 3), stride=(1, 1), padding=(1, 1))
  )
  (path1): Sequential(
    (0): Conv2d(6, 4, kernel_size=(3, 3), stride=(1, 1), padding=(1, 1))
    (1): GELU(approximate='none')
    (2): PixelShuffle(upscale_factor=1)
    (3): Conv2d(4, 6, kernel_size=(3, 3), stride=(1, 1), padding=(1, 1))
  )
  (to_img): Linear(in_features=128, out_features=24, bias=True)
  (head): Sequential(
    (0): Linear(in_features=64, out_features=64, bias=True)
    (1): GELU(approximate='none')
    (2): Linear(in_features=64, out_features=64, bias=True)
    (3): GELU(approximate='none')
    (4): Linear(in_features=64, out_features=64, bias=True)
  )
)

[net] key attrs: {'in_channels': 126, 'out_channels': 6, 'img_size': (32, 64), 'patch_size': 2, 'cnn_ratio': 4, 'superres_factor': 1}
[net] pos_embed.shape: (1, 512, 128)
[net] patch_embed.proj.weight: (128, 126, 2, 2)
[net] patch_embed.proj.bias:   (128,)
[rank: 2] Seed set to 0
[rank: 1] Seed set to 0
/ccs/home/janetw/miniconda3/envs/orbit/lib/python3.12/site-packages/lightning_fabric/strategies/fsdp.py:697: `FSDPStrategy(activation_checkpointing=<class 'timm.models.vision_transformer.Block'>)` is deprecated, use `FSDPStrategy(activation_checkpointing_policy={<class 'timm.models.vision_transformer.Block'>})` instead.
…
[info] net class: Res_Slim_ViT @ /autofs/nccs-svm1_home2/janetw/diffusion/ORBIT-2-sandbox/src/climate_learn/models/hub/res_slimvit.py

[net] full module tree:
[info] net class: Res_Slim_ViT @ /autofs/nccs-svm1_home2/janetw/diffusion/ORBIT-2-sandbox/src/climate_learn/models/hub/res_slimvit.py

[net] full module tree:
[info] net class: Res_Slim_ViT @ /autofs/nccs-svm1_home2/janetw/diffusion/ORBIT-2-sandbox/src/climate_learn/models/hub/res_slimvit.py

[net] full module tree:
Epoch 4/4  ━━━━━━━━━━━━━━━━━ 56/-- 0:00:41 • -:--:-- 4.82it/s v_num: 0          
                                                              train/lat_mse:agg…
 Res_Slim_ViT(
  (patch_embed): PatchEmbed(
    (proj): Conv2d(126, 128, kernel_size=(2, 2), stride=(2, 2))
    (norm): Identity()
  )
  (pos_drop): Dropout(p=0.1, inplace=False)
  (blocks): ModuleList(
    (0): FullyShardedDataParallel(
      (_fsdp_wrapped_module): CheckpointWrapper(
        (_checkpoint_wrapped_module): Block(
          (norm1): LayerNorm((128,), eps=1e-05, elementwise_affine=True)
          (attn): Attention(
            (qkv): Linear(in_features=128, out_features=384, bias=True)
            (q_norm): Identity()
            (k_norm): Identity()
            (attn_drop): Dropout(p=0.1, inplace=False)
            (proj): Linear(in_features=128, out_features=128, bias=True)
            (proj_drop): Dropout(p=0.1, inplace=False)
          )
          (ls1): Identity()
          (drop_path1): Identity()
          (norm2): LayerNorm((128,), eps=1e-05, elementwise_affine=True)
          (mlp): Mlp(
            (fc1): Linear(in_features=128, out_features=512, bias=True)
            (act): GELU(approximate='none')
            (drop1): Dropout(p=0.1, inplace=False)
            (norm): Identity()
            (fc2): Linear(in_features=512, out_features=128, bias=True)
            (drop2): Dropout(p=0.1, inplace=False)
          )
          (ls2): Identity()
          (drop_path2): Identity()
        )
      )
    )
    (1): FullyShardedDataParallel(
      (_fsdp_wrapped_module): CheckpointWrapper(
        (_checkpoint_wrapped_module): Block(
          (norm1): LayerNorm((128,), eps=1e-05, elementwise_affine=True)
          (attn): Attention(
            (qkv): Linear(in_features=128, out_features=384, bias=True)
            (q_norm): Identity()
            (k_norm): Identity()
            (attn_drop): Dropout(p=0.1, inplace=False)
            (proj): Linear(in_features=128, out_features=128, bias=True)
            (proj_drop): Dropout(p=0.1, inplace=False)
          )
          (ls1): Identity()
          (drop_path1): DropPath(drop_prob=0.014)
          (norm2): LayerNorm((128,), eps=1e-05, elementwise_affine=True)
          (mlp): Mlp(
            (fc1): Linear(in_features=128, out_features=512, bias=True)
            (act): GELU(approximate='none')
            (drop1): Dropout(p=0.1, inplace=False)
            (norm): Identity()
            (fc2): Linear(in_features=512, out_features=128, bias=True)
            (drop2): Dropout(p=0.1, inplace=False)
          )
          (ls2): Identity()
          (drop_path2): DropPath(drop_prob=0.014)
        )
      )
    )
    (2): FullyShardedDataParallel(
      (_fsdp_wrapped_module): CheckpointWrapper(
        (_checkpoint_wrapped_module): Block(
          (norm1): LayerNorm((128,), eps=1e-05, elementwise_affine=True)
          (attn): Attention(
            (qkv): Linear(in_features=128, out_features=384, bias=True)
            (q_norm): Identity()
            (k_norm): Identity()
            (attn_drop): Dropout(p=0.1, inplace=False)
            (proj): Linear(in_features=128, out_features=128, bias=True)
            (proj_drop): Dropout(p=0.1, inplace=False)
          )
          (ls1): Identity()
          (drop_path1): DropPath(drop_prob=0.029)
          (norm2): LayerNorm((128,), eps=1e-05, elementwise_affine=True)
          (mlp): Mlp(
            (fc1): Linear(in_features=128, out_features=512, bias=True)
            (act): GELU(approximate='none')
            (drop1): Dropout(p=0.1, inplace=False)
            (norm): Identity()
            (fc2): Linear(in_features=512, out_features=128, bias=True)
            (drop2): Dropout(p=0.1, inplace=False)
          )
          (ls2): Identity()
          (drop_path2): DropPath(drop_prob=0.029)
        )
      )
    )
    (3): FullyShardedDataParallel(
      (_fsdp_wrapped_module): CheckpointWrapper(
        (_checkpoint_wrapped_module): Block(
          (norm1): LayerNorm((128,), eps=1e-05, elementwise_affine=True)
          (attn): Attention(
            (qkv): Linear(in_features=128, out_features=384, bias=True)
            (q_norm): Identity()
            (k_norm): Identity()
                                                              0.500             
 Res_Slim_ViT(
  (patch_embed): PatchEmbed(
    (proj): Conv2d(126, 128, kernel_size=(2, 2), stride=(2, 2))
    (norm): Identity()
  )
  (pos_drop): Dropout(p=0.1, inplace=False)
  (blocks): ModuleList(
    (0): FullyShardedDataParallel(
      (_fsdp_wrapped_module): CheckpointWrapper(
        (_checkpoint_wrapped_module): Block(
          (norm1): LayerNorm((128,), eps=1e-05, elementwise_affine=True)
          (attn): Attention(
            (qkv): Linear(in_features=128, out_features=384, bias=True)
            (q_norm): Identity()
            (k_norm): Identity()
            (attn_drop): Dropout(p=0.1, inplace=False)
            (proj): Linear(in_features=128, out_features=128, bias=True)
            (proj_drop): Dropout(p=0.1, inplace=False)
          )
          (ls1): Identity()
          (drop_path1): Identity()
          (norm2): LayerNorm((128,), eps=1e-05, elementwise_affine=True)
          (mlp): Mlp(
            (fc1): Linear(in_features=128, out_features=512, bias=True)
            (act): GELU(approximate='none')
            (drop1): Dropout(p=0.1, inplace=False)
            (norm): Identity()
            (fc2): Linear(in_features=512, out_features=128, bias=True)
            (drop2): Dropout(p=0.1, inplace=False)
          )
          (ls2): Identity()
          (drop_path2): Identity()
        )
      )
    )
    (1): FullyShardedDataParallel(
      (_fsdp_wrapped_module): CheckpointWrapper(
        (_checkpoint_wrapped_module): Block(
          (norm1): LayerNorm((128,), eps=1e-05, elementwise_affine=True)
          (attn): Attention(
            (qkv): Linear(in_features=128, out_features=384, bias=True)
            (q_norm): Identity()
            (k_norm): Identity()
            (attn_drop): Dropout(p=0.1, inplace=False)
            (proj): Linear(in_features=128, out_features=128, bias=True)
            (proj_drop): Dropout(p=0.1, inplace=False)
          )
          (ls1): Identity()
          (drop_path1): DropPath(drop_prob=0.014)
          (norm2): LayerNorm((128,), eps=1e-05, elementwise_affine=True)
          (mlp): Mlp(
            (fc1): Linear(in_features=128, out_features=512, bias=True)
            (act): GELU(approximate='none')
            (drop1): Dropout(p=0.1, inplace=False)
            (norm): Identity()
            (fc2): Linear(in_features=512, out_features=128, bias=True)
            (drop2): Dropout(p=0.1, inplace=False)
          )
          (ls2): Identity()
          (drop_path2): DropPath(drop_prob=0.014)
        )
      )
    )
    (2): FullyShardedDataParallel(
      (_fsdp_wrapped_module): CheckpointWrapper(
        (_checkpoint_wrapped_module): Block(
          (norm1): LayerNorm((128,), eps=1e-05, elementwise_affine=True)
          (attn): Attention(
            (qkv): Linear(in_features=128, out_features=384, bias=True)
            (q_norm): Identity()
            (k_norm): Identity()
            (attn_drop): Dropout(p=0.1, inplace=False)
            (proj): Linear(in_features=128, out_features=128, bias=True)
            (proj_drop): Dropout(p=0.1, inplace=False)
          )
          (ls1): Identity()
          (drop_path1): DropPath(drop_prob=0.029)
          (norm2): LayerNorm((128,), eps=1e-05, elementwise_affine=True)
          (mlp): Mlp(
            (fc1): Linear(in_features=128, out_features=512, bias=True)
            (act): GELU(approximate='none')
            (drop1): Dropout(p=0.1, inplace=False)
            (norm): Identity()
            (fc2): Linear(in_features=512, out_features=128, bias=True)
            (drop2): Dropout(p=0.1, inplace=False)
          )
          (ls2): Identity()
          (drop_path2): DropPath(drop_prob=0.029)
        )
      )
    )
    (3): FullyShardedDataParallel(
      (_fsdp_wrapped_module): CheckpointWrapper(
        (_checkpoint_wrapped_module): Block(
          (norm1): LayerNorm((128,), eps=1e-05, elementwise_affine=True)
          (attn): Attention(
            (qkv): Linear(in_features=128, out_features=384, bias=True)
            (q_norm): Identity()
            (k_norm): Identity()
            (attn_drop): Dropout(p=0.1, inplace=False)
            (proj): Linear(in_features=128, out_features=128, bias=True)
            (proj_drop): Dropout(p=0.1, inplace=False)
          )
          (ls1): Identity()
          (drop_path1): DropPath(drop_prob=0.043)
          (norm2): LayerNorm((128,), eps=1e-05, elementwise_affine=True)
          (mlp): Mlp(
            (fc1): Linear(in_features=128, out_features=512, bias=True)
            (act): GELU(approximate='none')
            (drop1): Dropout(p=0.1, inplace=False)
            (norm): Identity()
            (fc2): Linear(in_features=512, out_features=128, bias=True)
            (drop2): Dropout(p=0.1, inplace=False)
          )
          (ls2): Identity()
          (drop_path2): DropPath(drop_prob=0.043)
        )
      )
    )
    (4): FullyShardedDataParallel(
      (_fsdp_wrapped_module): CheckpointWrapper(
        (_checkpoint_wrapped_module): Block(
          (norm1): LayerNorm((128,), eps=1e-05, elementwise_affine=True)
          (attn): Attention(
            (qkv): Linear(in_features=128, out_features=384, bias=True)
            (q_norm): Identity()
            (k_norm): Identity()
            (attn_drop): Dropout(p=0.1, inplace=False)
            (proj): Linear(in_features=128, out_features=128, bias=True)
            (proj_drop): Dropout(p=0.1, inplace=False)
          )
          (ls1): Identity()
          (drop_path1): DropPath(drop_prob=0.057)
          (norm2): LayerNorm((128,), eps=1e-05, elementwise_affine=True)
          (mlp): Mlp(
            (fc1): Linear(in_features=128, out_features=512, bias=True)
            (act): GELU(approximate='none')
            (drop1): Dropout(p=0.1, inplace=False)
            (norm): Identity()
            (fc2): Linear(in_features=512, out_features=128, bias=True)
            (drop2): Dropout(p=0.1, inplace=False)
          )
          (ls2): Identity()
          (drop_path2): DropPath(drop_prob=0.057)
        )
      )
    )
    (5): FullyShardedDataParallel(
      (_fsdp_wrapped_module): CheckpointWrapper(
        (_checkpoint_wrapped_module): Block(
          (norm1): LayerNorm((128,), eps=1e-05, elementwise_affine=True)
          (attn): Attention(
            (qkv): Linear(in_features=128, out_features=384, bias=True)
            (q_norm): Identity()
            (k_norm): Identity()
            (attn_drop): Dropout(p=0.1, inplace=False)
            (proj): Linear(in_features=128, out_features=128, bias=True)
            (proj_drop): Dropout(p=0.1, inplace=False)
          )
          (ls1): Identity()
          (drop_path1): DropPath(drop_prob=0.071)
          (norm2): LayerNorm((128,), eps=1e-05, elementwise_affine=True)
          (mlp): Mlp(
            (fc1): Linear(in_features=128, out_features=512, bias=True)
            (act): GELU(approximate='none')
            (drop1): Dropout(p=0.1, inplace=False)
            (norm): Identity()
            (fc2): Linear(in_features=512, out_features=128, bias=True)
            (drop2): Dropout(p=0.1, inplace=False)
          )
          (ls2): Identity()
          (drop_path2): DropPath(drop_prob=0.071)
        )
      )
    )
    (6): FullyShardedDataParallel(
      (_fsdp_wrapped_module): CheckpointWrapper(
        (_checkpoint_wrapped_module): Block(
          (norm1): LayerNorm((128,), eps=1e-05, elementwise_affine=True)
          (attn): Attention(
            (qkv): Linear(in_features=128, out_features=384, bias=True)
            (q_norm): Identity()
            (k_norm): Identity()
            (attn_drop): Dropout(p=0.1, inplace=False)
            (proj): Linear(in_features=128, out_features=128, bias=True)
            (proj_drop): Dropout(p=0.1, inplace=False)
          )
          (ls1): Identity()
          (drop_path1): DropPath(drop_prob=0.086)
          (norm2): LayerNorm((128,), eps=1e-05, elementwise_affine=True)
          (mlp): Mlp(
            (fc1): Linear(in_features=128, out_features=512, bias=True)
            (act): GELU(approximate='none')
            (drop1): Dropout(p=0.1, inplace=False)
            (norm): Identity()
 Res_Slim_ViT(
  (patch_embed): PatchEmbed(
    (proj): Conv2d(126, 128, kernel_size=(2, 2), stride=(2, 2))
    (norm): Identity()
  )
  (pos_drop): Dropout(p=0.1, inplace=False)
  (blocks): ModuleList(
    (0): FullyShardedDataParallel(
      (_fsdp_wrapped_module): CheckpointWrapper(
        (_checkpoint_wrapped_module): Block(
          (norm1): LayerNorm((128,), eps=1e-05, elementwise_affine=True)
          (attn): Attention(
            (qkv): Linear(in_features=128, out_features=384, bias=True)
            (q_norm): Identity()
            (k_norm): Identity()
            (attn_drop): Dropout(p=0.1, inplace=False)
            (proj): Linear(in_features=128, out_features=128, bias=True)
            (proj_drop): Dropout(p=0.1, inplace=False)
          )
          (ls1): Identity()
          (drop_path1): Identity()
          (norm2): LayerNorm((128,), eps=1e-05, elementwise_affine=True)
          (mlp): Mlp(
            (fc1): Linear(in_features=128, out_features=512, bias=True)
            (act): GELU(approximate='none')
            (drop1): Dropout(p=0.1, inplace=False)
            (norm): Identity()
            (fc2): Linear(in_features=512, out_features=128, bias=True)
            (drop2): Dropout(p=0.1, inplace=False)
          )
          (ls2): Identity()
          (drop_path2): Identity()
        )
      )
    )
    (1): FullyShardedDataParallel(
      (_fsdp_wrapped_module): CheckpointWrapper(
        (_checkpoint_wrapped_module): Block(
          (norm1): LayerNorm((128,), eps=1e-05, elementwise_affine=True)
          (attn): Attention(
            (qkv): Linear(in_features=128, out_features=384, bias=True)
            (q_norm): Identity()
            (k_norm): Identity()
            (attn_drop): Dropout(p=0.1, inplace=False)
            (proj): Linear(in_features=128, out_features=128, bias=True)
            (proj_drop): Dropout(p=0.1, inplace=False)
          )
          (ls1): Identity()
          (drop_path1): DropPath(drop_prob=0.014)
          (norm2): LayerNorm((128,), eps=1e-05, elementwise_affine=True)
          (mlp): Mlp(
            (fc1): Linear(in_features=128, out_features=512, bias=True)
            (act): GELU(approximate='none')
            (drop1): Dropout(p=0.1, inplace=False)
            (norm): Identity()
            (fc2): Linear(in_features=512, out_features=128, bias=True)
            (drop2): Dropout(p=0.1, inplace=False)
          )
          (ls2): Identity()
          (drop_path2): DropPath(drop_prob=0.014)
        )
      )
    )
    (2): FullyShardedDataParallel(
      (_fsdp_wrapped_module): CheckpointWrapper(
        (_checkpoint_wrapped_module): Block(
          (norm1): LayerNorm((128,), eps=1e-05, elementwise_affine=True)
          (attn): Attention(
            (qkv): Linear(in_features=128, out_features=384, bias=True)
            (q_norm): Identity()
            (k_norm): Identity()
            (attn_drop): Dropout(p=0.1, inplace=False)
            (proj): Linear(in_features=128, out_features=128, bias=True)
            (proj_drop): Dropout(p=0.1, inplace=False)
          )
          (ls1): Identity()
          (drop_path1): DropPath(drop_prob=0.029)
          (norm2): LayerNorm((128,), eps=1e-05, elementwise_affine=True)
          (mlp): Mlp(
            (fc1): Linear(in_features=128, out_features=512, bias=True)
            (act): GELU(approximate='none')
            (drop1): Dropout(p=0.1, inplace=False)
            (norm): Identity()
            (fc2): Linear(in_features=512, out_features=128, bias=True)
            (drop2): Dropout(p=0.1, inplace=False)
          )
          (ls2): Identity()
          (drop_path2): DropPath(drop_prob=0.029)
        )
      )
    )
    (3): FullyShardedDataParallel(
      (_fsdp_wrapped_module): CheckpointWrapper(
        (_checkpoint_wrapped_module): Block(
          (norm1): LayerNorm((128,), eps=1e-05, elementwise_affine=True)
          (attn): Attention(
            (qkv): Linear(in_features=128, out_features=384, bias=True)
            (q_norm): Identity()
            (k_norm): Identity()
            (attn_drop): Dropout(p=0.1, inplace=False)
            (proj): Linear(in_features=128, out_features=128, bias=True)
            (proj_drop): Dropout(p=0.1, inplace=False)
          )
          (ls1): Identity()
          (drop_path1): DropPath(drop_prob=0.043)
          (norm2): LayerNorm((128,), eps=1e-05, elementwise_affine=True)
          (mlp): Mlp(
            (fc1): Linear(in_features=128, out_features=512, bias=True)
            (act): GELU(approximate='none')
            (drop1): Dropout(p=0.1, inplace=False)
            (norm): Identity()
            (fc2): Linear(in_features=512, out_features=128, bias=True)
            (drop2): Dropout(p=0.1, inplace=False)
          )
          (ls2): Identity()
          (drop_path2): DropPath(drop_prob=0.043)
        )
      )
    )
    (4): FullyShardedDataParallel(
      (_fsdp_wrapped_module): CheckpointWrapper(
        (_checkpoint_wrapped_module): Block(
          (norm1): LayerNorm((128,), eps=1e-05, elementwise_affine=True)
          (attn): Attention(
            (qkv): Linear(in_features=128, out_features=384, bias=True)
            (q_norm): Identity()
            (k_norm): Identity()
            (attn_drop): Dropout(p=0.1, inplace=False)
            (proj): Linear(in_features=128, out_features=128, bias=True)
            (proj_drop): Dropout(p=0.1, inplace=False)
          )
          (ls1): Identity()
          (drop_path1): DropPath(drop_prob=0.057)
          (norm2): LayerNorm((128,), eps=1e-05, elementwise_affine=True)
          (mlp): Mlp(
            (fc1): Linear(in_features=128, out_features=512, bias=True)
            (act): GELU(approximate='none')
            (drop1): Dropout(p=0.1, inplace=False)
            (norm): Identity()
            (fc2): Linear(in_features=512, out_features=128, bias=True)
            (drop2): Dropout(p=0.1, inplace=False)
          )
          (ls2): Identity()
          (drop_path2): DropPath(drop_prob=0.057)
        )
      )
    )
    (5): FullyShardedDataParallel(
      (_fsdp_wrapped_module): CheckpointWrapper(
        (_checkpoint_wrapped_module): Block(
          (norm1): LayerNorm((128,), eps=1e-05, elementwise_affine=True)
          (attn): Attention(
            (qkv): Linear(in_features=128, out_features=384, bias=True)
            (q_norm): Identity()
            (k_norm): Identity()
            (attn_drop): Dropout(p=0.1, inplace=False)
            (proj): Linear(in_features=128, out_features=128, bias=True)
            (proj_drop): Dropout(p=0.1, inplace=False)
          )
          (ls1): Identity()
          (drop_path1): DropPath(drop_prob=0.071)
          (norm2): LayerNorm((128,), eps=1e-05, elementwise_affine=True)
          (mlp): Mlp(
            (fc1): Linear(in_features=128, out_features=512, bias=True)
            (act): GELU(approximate='none')
            (drop1): Dropout(p=0.1, inplace=False)
            (norm): Identity()
            (fc2): Linear(in_features=512, out_features=128, bias=True)
            (drop2): Dropout(p=0.1, inplace=False)
          )
          (ls2): Identity()
          (drop_path2): DropPath(drop_prob=0.071)
        )
      )
    )
    (6): FullyShardedDataParallel(
      (_fsdp_wrapped_module): CheckpointWrapper(
        (_checkpoint_wrapped_module): Block(
          (norm1): LayerNorm((128,), eps=1e-05, elementwise_affine=True)
          (attn): Attention(
            (qkv): Linear(in_features=128, out_features=384, bias=True)
            (q_norm): Identity()
            (k_norm): Identity()
            (attn_drop): Dropout(p=0.1, inplace=False)
            (proj): Linear(in_features=128, out_features=128, bias=True)
            (proj_drop): Dropout(p=0.1, inplace=False)
          )
          (ls1): Identity()
          (drop_path1): DropPath(drop_prob=0.086)
          (norm2): LayerNorm((128,), eps=1e-05, elementwise_affine=True)
          (mlp): Mlp(
            (fc1): Linear(in_features=128, out_features=512, bias=True)
            (act): GELU(approximate='none')
            (drop1): Dropout(p=0.1, inplace=False)
            (norm): Identity()
            (fc2): Linear(in_features=512, out_features=128, bias=True)
            (drop2): Dropout(p=0.1, inplace=False)
          )
          (ls2): Identity()
          (drop_path2): DropPath(drop_prob=0.086)
        )
      )
    )
    (7): FullyShardedDataParallel(
      (_fsdp_wrapped_module): CheckpointWrapper(
        (_checkpoint_wrapped_module): Block(
          (norm1): LayerNorm((128,), eps=1e-05, elementwise_affine=True)
          (attn): Attention(
            (qkv): Linear(in_features=128, out_features=384, bias=True)
            (q_norm): Identity()
            (k_norm): Identity()
            (attn_drop): Dropout(p=0.1, inplace=False)
            (proj): Linear(in_features=128, out_features=128, bias=True)
            (proj_drop): Dropout(p=0.1, inplace=False)
          )
          (ls1): Identity()
          (drop_path1): DropPath(drop_prob=0.100)
          (norm2): LayerNorm((128,), eps=1e-05, elementwise_affine=True)
          (mlp): Mlp(
            (fc1): Linear(in_features=128, out_features=512, bias=True)
            (act): GELU(approximate='none')
            (drop1): Dropout(p=0.1, inplace=False)
            (norm): Identity()
            (fc2): Linear(in_features=512, out_features=128, bias=True)
            (drop2): Dropout(p=0.1, inplace=False)
          )
          (ls2): Identity()
          (drop_path2): DropPath(drop_prob=0.100)
        )
      )
    )
  )
  (norm): LayerNorm((128,), eps=1e-05, elementwise_affine=True)
  (path2): Sequential(
    (0): Conv2d(126, 4, kernel_size=(3, 3), stride=(1, 1), padding=(1, 1))
    (1): GELU(approximate='none')
    (2): PixelShuffle(upscale_factor=1)
    (3): Conv2d(4, 6, kernel_size=(3, 3), stride=(1, 1), padding=(1, 1))
  )
  (path1): Sequential(
    (0): Conv2d(6, 4, kernel_size=(3, 3), stride=(1, 1), padding=(1, 1))
    (1): GELU(approximate='none')
    (2): PixelShuffle(upscale_factor=1)
    (3): Conv2d(4, 6, kernel_size=(3, 3), stride=(1, 1), padding=(1, 1))
  )
  (to_img): Linear(in_features=128, out_features=24, bias=True)
  (head): Sequential(
    (0): Linear(in_features=64, out_features=64, bias=True)
    (1): GELU(approximate='none')
    (2): Linear(in_features=64, out_features=64, bias=True)
    (3): GELU(approximate='none')
    (4): Linear(in_features=64, out_features=64, bias=True)
  )
)

[net] key attrs: {'in_channels': 126, 'out_channels': 6, 'img_size': (32, 64), 'patch_size': 2, 'cnn_ratio': 4, 'superres_factor': 1}
[net] pos_embed.shape: (18902,)
[net] patch_embed.proj.weight: (0,)
[net] patch_embed.proj.bias:   (0,)
            (attn_drop): Dropout(p=0.1, inplace=False)
            (proj): Linear(in_features=128, out_features=128, bias=True)
            (proj_drop): Dropout(p=0.1, inplace=False)
          )
          (ls1): Identity()
          (drop_path1): DropPath(drop_prob=0.043)
          (norm2): LayerNorm((128,), eps=1e-05, elementwise_affine=True)
          (mlp): Mlp(
            (fc1): Linear(in_features=128, out_features=512, bias=True)
            (act): GELU(approximate='none')
            (drop1): Dropout(p=0.1, inplace=False)
            (norm): Identity()
            (fc2): Linear(in_features=512, out_features=128, bias=True)
            (drop2): Dropout(p=0.1, inplace=False)
          )
          (ls2): Identity()
          (drop_path2): DropPath(drop_prob=0.043)
        )
      )
    )
    (4): FullyShardedDataParallel(
      (_fsdp_wrapped_module): CheckpointWrapper(
        (_checkpoint_wrapped_module): Block(
          (norm1): LayerNorm((128,), eps=1e-05, elementwise_affine=True)
          (attn): Attention(
            (qkv): Linear(in_features=128, out_features=384, bias=True)
            (q_norm): Identity()
            (k_norm): Identity()
            (attn_drop): Dropout(p=0.1, inplace=False)
            (proj): Linear(in_features=128, out_features=128, bias=True)
            (proj_drop): Dropout(p=0.1, inplace=False)
          )
          (ls1): Identity()
          (drop_path1): DropPath(drop_prob=0.057)
          (norm2): LayerNorm((128,), eps=1e-05, elementwise_affine=True)
          (mlp): Mlp(
            (fc1): Linear(in_features=128, out_features=512, bias=True)
            (act): GELU(approximate='none')
            (drop1): Dropout(p=0.1, inplace=False)
            (norm): Identity()
            (fc2): Linear(in_features=512, out_features=128, bias=True)
            (drop2): Dropout(p=0.1, inplace=False)
          )
          (ls2): Identity()
          (drop_path2): DropPath(drop_prob=0.057)
        )
      )
    )
    (5): FullyShardedDataParallel(
      (_fsdp_wrapped_module): CheckpointWrapper(
        (_checkpoint_wrapped_module): Block(
          (norm1): LayerNorm((128,), eps=1e-05, elementwise_affine=True)
          (attn): Attention(
            (qkv): Linear(in_features=128, out_features=384, bias=True)
            (q_norm): Identity()
            (k_norm): Identity()
            (attn_drop): Dropout(p=0.1, inplace=False)
            (proj): Linear(in_features=128, out_features=128, bias=True)
            (proj_drop): Dropout(p=0.1, inplace=False)
          )
          (ls1): Identity()
          (drop_path1): DropPath(drop_prob=0.071)
          (norm2): LayerNorm((128,), eps=1e-05, elementwise_affine=True)
          (mlp): Mlp(
            (fc1): Linear(in_features=128, out_features=512, bias=True)
            (act): GELU(approximate='none')
            (drop1): Dropout(p=0.1, inplace=False)
            (norm): Identity()
            (fc2): Linear(in_features=512, out_features=128, bias=True)
            (drop2): Dropout(p=0.1, inplace=False)
          )
          (ls2): Identity()
          (drop_path2): DropPath(drop_prob=0.071)
        )
      )
    )
    (6): FullyShardedDataParallel(
      (_fsdp_wrapped_module): CheckpointWrapper(
        (_checkpoint_wrapped_module): Block(
          (norm1): LayerNorm((128,), eps=1e-05, elementwise_affine=True)
          (attn): Attention(
            (qkv): Linear(in_features=128, out_features=384, bias=True)
            (q_norm): Identity()
            (k_norm): Identity()
            (attn_drop): Dropout(p=0.1, inplace=False)
            (proj): Linear(in_features=128, out_features=128, bias=True)
            (proj_drop): Dropout(p=0.1, inplace=False)
          )
          (ls1): Identity()
          (drop_path1): DropPath(drop_prob=0.086)
          (norm2): LayerNorm((128,), eps=1e-05, elementwise_affine=True)
          (mlp): Mlp(
            (fc1): Linear(in_features=128, out_features=512, bias=True)
            (act): GELU(approximate='none')
            (drop1): Dropout(p=0.1, inplace=False)
            (norm): Identity()
 Res_Slim_ViT(
  (patch_embed): PatchEmbed(
    (proj): Conv2d(126, 128, kernel_size=(2, 2), stride=(2, 2))
    (norm): Identity()
  )
  (pos_drop): Dropout(p=0.1, inplace=False)
  (blocks): ModuleList(
    (0): FullyShardedDataParallel(
      (_fsdp_wrapped_module): CheckpointWrapper(
        (_checkpoint_wrapped_module): Block(
          (norm1): LayerNorm((128,), eps=1e-05, elementwise_affine=True)
          (attn): Attention(
            (qkv): Linear(in_features=128, out_features=384, bias=True)
            (q_norm): Identity()
            (k_norm): Identity()
            (attn_drop): Dropout(p=0.1, inplace=False)
            (proj): Linear(in_features=128, out_features=128, bias=True)
            (proj_drop): Dropout(p=0.1, inplace=False)
          )
          (ls1): Identity()
          (drop_path1): Identity()
          (norm2): LayerNorm((128,), eps=1e-05, elementwise_affine=True)
          (mlp): Mlp(
            (fc1): Linear(in_features=128, out_features=512, bias=True)
            (act): GELU(approximate='none')
            (drop1): Dropout(p=0.1, inplace=False)
            (norm): Identity()
            (fc2): Linear(in_features=512, out_features=128, bias=True)
            (drop2): Dropout(p=0.1, inplace=False)
          )
          (ls2): Identity()
          (drop_path2): Identity()
        )
      )
    )
    (1): FullyShardedDataParallel(
      (_fsdp_wrapped_module): CheckpointWrapper(
        (_checkpoint_wrapped_module): Block(
          (norm1): LayerNorm((128,), eps=1e-05, elementwise_affine=True)
          (attn): Attention(
            (qkv): Linear(in_features=128, out_features=384, bias=True)
            (q_norm): Identity()
            (k_norm): Identity()
            (attn_drop): Dropout(p=0.1, inplace=False)
            (proj): Linear(in_features=128, out_features=128, bias=True)
            (proj_drop): Dropout(p=0.1, inplace=False)
          )
          (ls1): Identity()
          (drop_path1): DropPath(drop_prob=0.014)
          (norm2): LayerNorm((128,), eps=1e-05, elementwise_affine=True)
          (mlp): Mlp(
            (fc1): Linear(in_features=128, out_features=512, bias=True)
            (act): GELU(approximate='none')
            (drop1): Dropout(p=0.1, inplace=False)
            (norm): Identity()
            (fc2): Linear(in_features=512, out_features=128, bias=True)
            (drop2): Dropout(p=0.1, inplace=False)
          )
          (ls2): Identity()
          (drop_path2): DropPath(drop_prob=0.014)
        )
      )
    )
    (2): FullyShardedDataParallel(
      (_fsdp_wrapped_module): CheckpointWrapper(
        (_checkpoint_wrapped_module): Block(
          (norm1): LayerNorm((128,), eps=1e-05, elementwise_affine=True)
          (attn): Attention(
            (qkv): Linear(in_features=128, out_features=384, bias=True)
            (q_norm): Identity()
            (k_norm): Identity()
            (attn_drop): Dropout(p=0.1, inplace=False)
            (proj): Linear(in_features=128, out_features=128, bias=True)
            (proj_drop): Dropout(p=0.1, inplace=False)
          )
          (ls1): Identity()
          (drop_path1): DropPath(drop_prob=0.029)
          (norm2): LayerNorm((128,), eps=1e-05, elementwise_affine=True)
          (mlp): Mlp(
            (fc1): Linear(in_features=128, out_features=512, bias=True)
            (act): GELU(approximate='none')
            (drop1): Dropout(p=0.1, inplace=False)
            (norm): Identity()
            (fc2): Linear(in_features=512, out_features=128, bias=True)
            (drop2): Dropout(p=0.1, inplace=False)
          )
          (ls2): Identity()
          (drop_path2): DropPath(drop_prob=0.029)
        )
      )
    )
    (3): FullyShardedDataParallel(
      (_fsdp_wrapped_module): CheckpointWrapper(
        (_checkpoint_wrapped_module): Block(
          (norm1): LayerNorm((128,), eps=1e-05, elementwise_affine=True)
          (attn): Attention(
            (qkv): Linear(in_features=128, out_features=384, bias=True)
            (q_norm): Identity()
            (k_norm): Identity()
            (fc2): Linear(in_features=512, out_features=128, bias=True)
            (drop2): Dropout(p=0.1, inplace=False)
          )
          (ls2): Identity()
          (drop_path2): DropPath(drop_prob=0.086)
        )
      )
    )
    (7): FullyShardedDataParallel(
      (_fsdp_wrapped_module): CheckpointWrapper(
        (_checkpoint_wrapped_module): Block(
          (norm1): LayerNorm((128,), eps=1e-05, elementwise_affine=True)
          (attn): Attention(
            (qkv): Linear(in_features=128, out_features=384, bias=True)
            (q_norm): Identity()
            (k_norm): Identity()
            (attn_drop): Dropout(p=0.1, inplace=False)
            (proj): Linear(in_features=128, out_features=128, bias=True)
            (proj_drop): Dropout(p=0.1, inplace=False)
          )
          (ls1): Identity()
          (drop_path1): DropPath(drop_prob=0.100)
          (norm2): LayerNorm((128,), eps=1e-05, elementwise_affine=True)
          (mlp): Mlp(
            (fc1): Linear(in_features=128, out_features=512, bias=True)
            (act): GELU(approximate='none')
            (drop1): Dropout(p=0.1, inplace=False)
            (norm): Identity()
            (fc2): Linear(in_features=512, out_features=128, bias=True)
            (drop2): Dropout(p=0.1, inplace=False)
          )
          (ls2): Identity()
          (drop_path2): DropPath(drop_prob=0.100)
        )
      )
    )
  )
  (norm): LayerNorm((128,), eps=1e-05, elementwise_affine=True)
  (path2): Sequential(
    (0): Conv2d(126, 4, kernel_size=(3, 3), stride=(1, 1), padding=(1, 1))
    (1): GELU(approximate='none')
    (2): PixelShuffle(upscale_factor=1)
    (3): Conv2d(4, 6, kernel_size=(3, 3), stride=(1, 1), padding=(1, 1))
  )
  (path1): Sequential(
    (0): Conv2d(6, 4, kernel_size=(3, 3), stride=(1, 1), padding=(1, 1))
    (1): GELU(approximate='none')
    (2): PixelShuffle(upscale_factor=1)
    (3): Conv2d(4, 6, kernel_size=(3, 3), stride=(1, 1), padding=(1, 1))
  )
  (to_img): Linear(in_features=128, out_features=24, bias=True)
  (head): Sequential(
    (0): Linear(in_features=64, out_features=64, bias=True)
    (1): GELU(approximate='none')
    (2): Linear(in_features=64, out_features=64, bias=True)
    (3): GELU(approximate='none')
    (4): Linear(in_features=64, out_features=64, bias=True)
  )
)

[net] key attrs: {'in_channels': 126, 'out_channels': 6, 'img_size': (32, 64), 'patch_size': 2, 'cnn_ratio': 4, 'superres_factor': 1}
[net] pos_embed.shape: (18902,)
[net] patch_embed.proj.weight: (0,)
[net] patch_embed.proj.bias:   (0,)
            (fc2): Linear(in_features=512, out_features=128, bias=True)
            (drop2): Dropout(p=0.1, inplace=False)
          )
          (ls2): Identity()
          (drop_path2): DropPath(drop_prob=0.086)
        )
      )
    )
    (7): FullyShardedDataParallel(
      (_fsdp_wrapped_module): CheckpointWrapper(
        (_checkpoint_wrapped_module): Block(
          (norm1): LayerNorm((128,), eps=1e-05, elementwise_affine=True)
          (attn): Attention(
            (qkv): Linear(in_features=128, out_features=384, bias=True)
            (q_norm): Identity()
            (k_norm): Identity()
            (attn_drop): Dropout(p=0.1, inplace=False)
            (proj): Linear(in_features=128, out_features=128, bias=True)
            (proj_drop): Dropout(p=0.1, inplace=False)
          )
          (ls1): Identity()
          (drop_path1): DropPath(drop_prob=0.100)
          (norm2): LayerNorm((128,), eps=1e-05, elementwise_affine=True)
          (mlp): Mlp(
            (fc1): Linear(in_features=128, out_features=512, bias=True)
            (act): GELU(approximate='none')
            (drop1): Dropout(p=0.1, inplace=False)
            (norm): Identity()
            (fc2): Linear(in_features=512, out_features=128, bias=True)
            (drop2): Dropout(p=0.1, inplace=False)
          )
          (ls2): Identity()
          (drop_path2): DropPath(drop_prob=0.100)
        )
      )
    )
  )
  (norm): LayerNorm((128,), eps=1e-05, elementwise_affine=True)
  (path2): Sequential(
    (0): Conv2d(126, 4, kernel_size=(3, 3), stride=(1, 1), padding=(1, 1))
    (1): GELU(approximate='none')
    (2): PixelShuffle(upscale_factor=1)
    (3): Conv2d(4, 6, kernel_size=(3, 3), stride=(1, 1), padding=(1, 1))
  )
  (path1): Sequential(
    (0): Conv2d(6, 4, kernel_size=(3, 3), stride=(1, 1), padding=(1, 1))
    (1): GELU(approximate='none')
    (2): PixelShuffle(upscale_factor=1)
    (3): Conv2d(4, 6, kernel_size=(3, 3), stride=(1, 1), padding=(1, 1))
  )
  (to_img): Linear(in_features=128, out_features=24, bias=True)
  (head): Sequential(
    (0): Linear(in_features=64, out_features=64, bias=True)
    (1): GELU(approximate='none')
    (2): Linear(in_features=64, out_features=64, bias=True)
    (3): GELU(approximate='none')
    (4): Linear(in_features=64, out_features=64, bias=True)
  )
)

[net] key attrs: {'in_channels': 126, 'out_channels': 6, 'img_size': (32, 64), 'patch_size': 2, 'cnn_ratio': 4, 'superres_factor': 1}
[net] pos_embed.shape: (8830,)
[net] patch_embed.proj.weight: (10072,)
[net] patch_embed.proj.bias:   (0,)
 Res_Slim_ViT(
  (patch_embed): PatchEmbed(
    (proj): Conv2d(126, 128, kernel_size=(2, 2), stride=(2, 2))
    (norm): Identity()
  )
  (pos_drop): Dropout(p=0.1, inplace=False)
  (blocks): ModuleList(
    (0): FullyShardedDataParallel(
      (_fsdp_wrapped_module): CheckpointWrapper(
        (_checkpoint_wrapped_module): Block(
          (norm1): LayerNorm((128,), eps=1e-05, elementwise_affine=True)
          (attn): Attention(
            (qkv): Linear(in_features=128, out_features=384, bias=True)
            (q_norm): Identity()
            (k_norm): Identity()
            (attn_drop): Dropout(p=0.1, inplace=False)
            (proj): Linear(in_features=128, out_features=128, bias=True)
            (proj_drop): Dropout(p=0.1, inplace=False)
          )
          (ls1): Identity()
          (drop_path1): Identity()
          (norm2): LayerNorm((128,), eps=1e-05, elementwise_affine=True)
          (mlp): Mlp(
            (fc1): Linear(in_features=128, out_features=512, bias=True)
            (act): GELU(approximate='none')
            (drop1): Dropout(p=0.1, inplace=False)
            (norm): Identity()
            (fc2): Linear(in_features=512, out_features=128, bias=True)
            (drop2): Dropout(p=0.1, inplace=False)
          )
          (ls2): Identity()
          (drop_path2): Identity()
        )
      )
    )
    (1): FullyShardedDataParallel(
      (_fsdp_wrapped_module): CheckpointWrapper(
        (_checkpoint_wrapped_module): Block(
          (norm1): LayerNorm((128,), eps=1e-05, elementwise_affine=True)
          (attn): Attention(
            (qkv): Linear(in_features=128, out_features=384, bias=True)
            (q_norm): Identity()
            (k_norm): Identity()
            (attn_drop): Dropout(p=0.1, inplace=False)
            (proj): Linear(in_features=128, out_features=128, bias=True)
            (proj_drop): Dropout(p=0.1, inplace=False)
          )
          (ls1): Identity()
          (drop_path1): DropPath(drop_prob=0.014)
          (norm2): LayerNorm((128,), eps=1e-05, elementwise_affine=True)
          (mlp): Mlp(
            (fc1): Linear(in_features=128, out_features=512, bias=True)
            (act): GELU(approximate='none')
            (drop1): Dropout(p=0.1, inplace=False)
            (norm): Identity()
            (fc2): Linear(in_features=512, out_features=128, bias=True)
            (drop2): Dropout(p=0.1, inplace=False)
          )
          (ls2): Identity()
          (drop_path2): DropPath(drop_prob=0.014)
        )
      )
    )
    (2): FullyShardedDataParallel(
      (_fsdp_wrapped_module): CheckpointWrapper(
        (_checkpoint_wrapped_module): Block(
          (norm1): LayerNorm((128,), eps=1e-05, elementwise_affine=True)
          (attn): Attention(
            (qkv): Linear(in_features=128, out_features=384, bias=True)
            (q_norm): Identity()
            (k_norm): Identity()
            (attn_drop): Dropout(p=0.1, inplace=False)
            (proj): Linear(in_features=128, out_features=128, bias=True)
            (proj_drop): Dropout(p=0.1, inplace=False)
          )
          (ls1): Identity()
          (drop_path1): DropPath(drop_prob=0.029)
          (norm2): LayerNorm((128,), eps=1e-05, elementwise_affine=True)
          (mlp): Mlp(
            (fc1): Linear(in_features=128, out_features=512, bias=True)
            (act): GELU(approximate='none')
            (drop1): Dropout(p=0.1, inplace=False)
            (norm): Identity()
            (fc2): Linear(in_features=512, out_features=128, bias=True)
            (drop2): Dropout(p=0.1, inplace=False)
          )
          (ls2): Identity()
          (drop_path2): DropPath(drop_prob=0.029)
        )
      )
    )
    (3): FullyShardedDataParallel(
      (_fsdp_wrapped_module): CheckpointWrapper(
        (_checkpoint_wrapped_module): Block(
          (norm1): LayerNorm((128,), eps=1e-05, elementwise_affine=True)
          (attn): Attention(
            (qkv): Linear(in_features=128, out_features=384, bias=True)
            (q_norm): Identity()
            (k_norm): Identity()
 Res_Slim_ViT(
  (patch_embed): PatchEmbed(
    (proj): Conv2d(126, 128, kernel_size=(2, 2), stride=(2, 2))
    (norm): Identity()
  )
  (pos_drop): Dropout(p=0.1, inplace=False)
  (blocks): ModuleList(
    (0): FullyShardedDataParallel(
      (_fsdp_wrapped_module): CheckpointWrapper(
        (_checkpoint_wrapped_module): Block(
          (norm1): LayerNorm((128,), eps=1e-05, elementwise_affine=True)
          (attn): Attention(
            (qkv): Linear(in_features=128, out_features=384, bias=True)
            (q_norm): Identity()
            (k_norm): Identity()
            (attn_drop): Dropout(p=0.1, inplace=False)
            (proj): Linear(in_features=128, out_features=128, bias=True)
            (proj_drop): Dropout(p=0.1, inplace=False)
          )
          (ls1): Identity()
          (drop_path1): Identity()
          (norm2): LayerNorm((128,), eps=1e-05, elementwise_affine=True)
          (mlp): Mlp(
            (fc1): Linear(in_features=128, out_features=512, bias=True)
            (act): GELU(approximate='none')
            (drop1): Dropout(p=0.1, inplace=False)
            (norm): Identity()
            (fc2): Linear(in_features=512, out_features=128, bias=True)
            (drop2): Dropout(p=0.1, inplace=False)
          )
          (ls2): Identity()
          (drop_path2): Identity()
        )
      )
    )
    (1): FullyShardedDataParallel(
      (_fsdp_wrapped_module): CheckpointWrapper(
        (_checkpoint_wrapped_module): Block(
          (norm1): LayerNorm((128,), eps=1e-05, elementwise_affine=True)
          (attn): Attention(
            (qkv): Linear(in_features=128, out_features=384, bias=True)
            (q_norm): Identity()
            (k_norm): Identity()
            (attn_drop): Dropout(p=0.1, inplace=False)
            (proj): Linear(in_features=128, out_features=128, bias=True)
            (proj_drop): Dropout(p=0.1, inplace=False)
          )
          (ls1): Identity()
          (drop_path1): DropPath(drop_prob=0.014)
          (norm2): LayerNorm((128,), eps=1e-05, elementwise_affine=True)
          (mlp): Mlp(
            (fc1): Linear(in_features=128, out_features=512, bias=True)
            (act): GELU(approximate='none')
            (drop1): Dropout(p=0.1, inplace=False)
            (norm): Identity()
            (fc2): Linear(in_features=512, out_features=128, bias=True)
            (drop2): Dropout(p=0.1, inplace=False)
          )
          (ls2): Identity()
          (drop_path2): DropPath(drop_prob=0.014)
        )
      )
    )
    (2): FullyShardedDataParallel(
      (_fsdp_wrapped_module): CheckpointWrapper(
        (_checkpoint_wrapped_module): Block(
          (norm1): LayerNorm((128,), eps=1e-05, elementwise_affine=True)
          (attn): Attention(
            (qkv): Linear(in_features=128, out_features=384, bias=True)
            (q_norm): Identity()
            (k_norm): Identity()
            (attn_drop): Dropout(p=0.1, inplace=False)
            (proj): Linear(in_features=128, out_features=128, bias=True)
            (proj_drop): Dropout(p=0.1, inplace=False)
          )
          (ls1): Identity()
          (drop_path1): DropPath(drop_prob=0.029)
          (norm2): LayerNorm((128,), eps=1e-05, elementwise_affine=True)
          (mlp): Mlp(
            (fc1): Linear(in_features=128, out_features=512, bias=True)
            (act): GELU(approximate='none')
            (drop1): Dropout(p=0.1, inplace=False)
            (norm): Identity()
            (fc2): Linear(in_features=512, out_features=128, bias=True)
            (drop2): Dropout(p=0.1, inplace=False)
          )
          (ls2): Identity()
          (drop_path2): DropPath(drop_prob=0.029)
        )
      )
    )
    (3): FullyShardedDataParallel(
      (_fsdp_wrapped_module): CheckpointWrapper(
        (_checkpoint_wrapped_module): Block(
          (norm1): LayerNorm((128,), eps=1e-05, elementwise_affine=True)
          (attn): Attention(
            (qkv): Linear(in_features=128, out_features=384, bias=True)
            (q_norm): Identity()
            (k_norm): Identity()
 Res_Slim_ViT(
  (patch_embed): PatchEmbed(
    (proj): Conv2d(126, 128, kernel_size=(2, 2), stride=(2, 2))
    (norm): Identity()
  )
  (pos_drop): Dropout(p=0.1, inplace=False)
  (blocks): ModuleList(
    (0): FullyShardedDataParallel(
      (_fsdp_wrapped_module): CheckpointWrapper(
        (_checkpoint_wrapped_module): Block(
          (norm1): LayerNorm((128,), eps=1e-05, elementwise_affine=True)
          (attn): Attention(
            (qkv): Linear(in_features=128, out_features=384, bias=True)
            (q_norm): Identity()
            (k_norm): Identity()
            (attn_drop): Dropout(p=0.1, inplace=False)
            (proj): Linear(in_features=128, out_features=128, bias=True)
            (proj_drop): Dropout(p=0.1, inplace=False)
          )
          (ls1): Identity()
          (drop_path1): Identity()
          (norm2): LayerNorm((128,), eps=1e-05, elementwise_affine=True)
          (mlp): Mlp(
            (fc1): Linear(in_features=128, out_features=512, bias=True)
            (act): GELU(approximate='none')
            (drop1): Dropout(p=0.1, inplace=False)
            (norm): Identity()
            (fc2): Linear(in_features=512, out_features=128, bias=True)
            (drop2): Dropout(p=0.1, inplace=False)
          )
          (ls2): Identity()
          (drop_path2): Identity()
        )
      )
    )
    (1): FullyShardedDataParallel(
      (_fsdp_wrapped_module): CheckpointWrapper(
        (_checkpoint_wrapped_module): Block(
          (norm1): LayerNorm((128,), eps=1e-05, elementwise_affine=True)
          (attn): Attention(
            (qkv): Linear(in_features=128, out_features=384, bias=True)
            (q_norm): Identity()
            (k_norm): Identity()
            (attn_drop): Dropout(p=0.1, inplace=False)
            (proj): Linear(in_features=128, out_features=128, bias=True)
            (proj_drop): Dropout(p=0.1, inplace=False)
          )
          (ls1): Identity()
          (drop_path1): DropPath(drop_prob=0.014)
          (norm2): LayerNorm((128,), eps=1e-05, elementwise_affine=True)
          (mlp): Mlp(
            (fc1): Linear(in_features=128, out_features=512, bias=True)
            (act): GELU(approximate='none')
            (drop1): Dropout(p=0.1, inplace=False)
            (norm): Identity()
            (fc2): Linear(in_features=512, out_features=128, bias=True)
            (drop2): Dropout(p=0.1, inplace=False)
          )
          (ls2): Identity()
          (drop_path2): DropPath(drop_prob=0.014)
        )
      )
    )
    (2): FullyShardedDataParallel(
      (_fsdp_wrapped_module): CheckpointWrapper(
        (_checkpoint_wrapped_module): Block(
          (norm1): LayerNorm((128,), eps=1e-05, elementwise_affine=True)
          (attn): Attention(
            (qkv): Linear(in_features=128, out_features=384, bias=True)
            (q_norm): Identity()
            (k_norm): Identity()
            (attn_drop): Dropout(p=0.1, inplace=False)
            (proj): Linear(in_features=128, out_features=128, bias=True)
            (proj_drop): Dropout(p=0.1, inplace=False)
          )
          (ls1): Identity()
          (drop_path1): DropPath(drop_prob=0.029)
          (norm2): LayerNorm((128,), eps=1e-05, elementwise_affine=True)
          (mlp): Mlp(
            (fc1): Linear(in_features=128, out_features=512, bias=True)
            (act): GELU(approximate='none')
            (drop1): Dropout(p=0.1, inplace=False)
            (norm): Identity()
            (fc2): Linear(in_features=512, out_features=128, bias=True)
            (drop2): Dropout(p=0.1, inplace=False)
          )
          (ls2): Identity()
          (drop_path2): DropPath(drop_prob=0.029)
        )
      )
    )
    (3): FullyShardedDataParallel(
      (_fsdp_wrapped_module): CheckpointWrapper(
        (_checkpoint_wrapped_module): Block(
          (norm1): LayerNorm((128,), eps=1e-05, elementwise_affine=True)
          (attn): Attention(
            (qkv): Linear(in_features=128, out_features=384, bias=True)
            (q_norm): Identity()
            (k_norm): Identity()
            (attn_drop): Dropout(p=0.1, inplace=False)
            (proj): Linear(in_features=128, out_features=128, bias=True)
            (proj_drop): Dropout(p=0.1, inplace=False)
          )
          (ls1): Identity()
          (drop_path1): DropPath(drop_prob=0.043)
          (norm2): LayerNorm((128,), eps=1e-05, elementwise_affine=True)
          (mlp): Mlp(
            (fc1): Linear(in_features=128, out_features=512, bias=True)
            (act): GELU(approximate='none')
            (drop1): Dropout(p=0.1, inplace=False)
            (norm): Identity()
            (fc2): Linear(in_features=512, out_features=128, bias=True)
            (drop2): Dropout(p=0.1, inplace=False)
          )
          (ls2): Identity()
          (drop_path2): DropPath(drop_prob=0.043)
        )
      )
    )
    (4): FullyShardedDataParallel(
      (_fsdp_wrapped_module): CheckpointWrapper(
        (_checkpoint_wrapped_module): Block(
          (norm1): LayerNorm((128,), eps=1e-05, elementwise_affine=True)
          (attn): Attention(
            (qkv): Linear(in_features=128, out_features=384, bias=True)
            (q_norm): Identity()
            (k_norm): Identity()
            (attn_drop): Dropout(p=0.1, inplace=False)
            (proj): Linear(in_features=128, out_features=128, bias=True)
            (proj_drop): Dropout(p=0.1, inplace=False)
          )
          (ls1): Identity()
          (drop_path1): DropPath(drop_prob=0.057)
          (norm2): LayerNorm((128,), eps=1e-05, elementwise_affine=True)
          (mlp): Mlp(
            (fc1): Linear(in_features=128, out_features=512, bias=True)
            (act): GELU(approximate='none')
            (drop1): Dropout(p=0.1, inplace=False)
            (norm): Identity()
            (fc2): Linear(in_features=512, out_features=128, bias=True)
            (drop2): Dropout(p=0.1, inplace=False)
          )
          (ls2): Identity()
          (drop_path2): DropPath(drop_prob=0.057)
        )
      )
    )
    (5): FullyShardedDataParallel(
      (_fsdp_wrapped_module): CheckpointWrapper(
        (_checkpoint_wrapped_module): Block(
          (norm1): LayerNorm((128,), eps=1e-05, elementwise_affine=True)
          (attn): Attention(
            (qkv): Linear(in_features=128, out_features=384, bias=True)
            (q_norm): Identity()
            (k_norm): Identity()
            (attn_drop): Dropout(p=0.1, inplace=False)
            (proj): Linear(in_features=128, out_features=128, bias=True)
            (proj_drop): Dropout(p=0.1, inplace=False)
          )
          (ls1): Identity()
          (drop_path1): DropPath(drop_prob=0.071)
          (norm2): LayerNorm((128,), eps=1e-05, elementwise_affine=True)
          (mlp): Mlp(
            (fc1): Linear(in_features=128, out_features=512, bias=True)
            (act): GELU(approximate='none')
            (drop1): Dropout(p=0.1, inplace=False)
            (norm): Identity()
            (fc2): Linear(in_features=512, out_features=128, bias=True)
            (drop2): Dropout(p=0.1, inplace=False)
          )
          (ls2): Identity()
          (drop_path2): DropPath(drop_prob=0.071)
        )
      )
    )
    (6): FullyShardedDataParallel(
      (_fsdp_wrapped_module): CheckpointWrapper(
        (_checkpoint_wrapped_module): Block(
          (norm1): LayerNorm((128,), eps=1e-05, elementwise_affine=True)
          (attn): Attention(
            (qkv): Linear(in_features=128, out_features=384, bias=True)
            (q_norm): Identity()
            (k_norm): Identity()
            (attn_drop): Dropout(p=0.1, inplace=False)
            (proj): Linear(in_features=128, out_features=128, bias=True)
            (proj_drop): Dropout(p=0.1, inplace=False)
          )
          (ls1): Identity()
          (drop_path1): DropPath(drop_prob=0.086)
          (norm2): LayerNorm((128,), eps=1e-05, elementwise_affine=True)
          (mlp): Mlp(
            (fc1): Linear(in_features=128, out_features=512, bias=True)
            (act): GELU(approximate='none')
            (drop1): Dropout(p=0.1, inplace=False)
            (norm): Identity()

================================================================================
=== LIVE MODEL RECONSTRUCTED FROM CKPT (STRICT=FALSE) ===
================================================================================
[info] net class: Res_Slim_ViT @ /autofs/nccs-svm1_home2/janetw/diffusion/ORBIT-2-sandbox/src/climate_learn/models/hub/res_slimvit.py
            (attn_drop): Dropout(p=0.1, inplace=False)
            (proj): Linear(in_features=128, out_features=128, bias=True)
            (proj_drop): Dropout(p=0.1, inplace=False)
          )
          (ls1): Identity()
          (drop_path1): DropPath(drop_prob=0.043)
          (norm2): LayerNorm((128,), eps=1e-05, elementwise_affine=True)
          (mlp): Mlp(
            (fc1): Linear(in_features=128, out_features=512, bias=True)
            (act): GELU(approximate='none')
            (drop1): Dropout(p=0.1, inplace=False)
            (norm): Identity()
            (fc2): Linear(in_features=512, out_features=128, bias=True)
            (drop2): Dropout(p=0.1, inplace=False)
          )
          (ls2): Identity()
          (drop_path2): DropPath(drop_prob=0.043)
        )
      )
    )
    (4): FullyShardedDataParallel(
      (_fsdp_wrapped_module): CheckpointWrapper(
        (_checkpoint_wrapped_module): Block(
          (norm1): LayerNorm((128,), eps=1e-05, elementwise_affine=True)
          (attn): Attention(
            (qkv): Linear(in_features=128, out_features=384, bias=True)
            (q_norm): Identity()
            (k_norm): Identity()
            (attn_drop): Dropout(p=0.1, inplace=False)
            (proj): Linear(in_features=128, out_features=128, bias=True)
            (proj_drop): Dropout(p=0.1, inplace=False)
          )
          (ls1): Identity()
          (drop_path1): DropPath(drop_prob=0.057)
          (norm2): LayerNorm((128,), eps=1e-05, elementwise_affine=True)
          (mlp): Mlp(
            (fc1): Linear(in_features=128, out_features=512, bias=True)
            (act): GELU(approximate='none')
            (drop1): Dropout(p=0.1, inplace=False)
            (norm): Identity()
            (fc2): Linear(in_features=512, out_features=128, bias=True)
            (drop2): Dropout(p=0.1, inplace=False)
          )
          (ls2): Identity()
          (drop_path2): DropPath(drop_prob=0.057)
        )
      )
    )
    (5): FullyShardedDataParallel(
      (_fsdp_wrapped_module): CheckpointWrapper(
        (_checkpoint_wrapped_module): Block(
          (norm1): LayerNorm((128,), eps=1e-05, elementwise_affine=True)
          (attn): Attention(
            (qkv): Linear(in_features=128, out_features=384, bias=True)
            (q_norm): Identity()
            (k_norm): Identity()
            (attn_drop): Dropout(p=0.1, inplace=False)
            (proj): Linear(in_features=128, out_features=128, bias=True)
            (proj_drop): Dropout(p=0.1, inplace=False)
          )
          (ls1): Identity()
          (drop_path1): DropPath(drop_prob=0.071)
          (norm2): LayerNorm((128,), eps=1e-05, elementwise_affine=True)
          (mlp): Mlp(
            (fc1): Linear(in_features=128, out_features=512, bias=True)
            (act): GELU(approximate='none')
            (drop1): Dropout(p=0.1, inplace=False)
            (norm): Identity()
            (fc2): Linear(in_features=512, out_features=128, bias=True)
            (drop2): Dropout(p=0.1, inplace=False)
          )
          (ls2): Identity()
          (drop_path2): DropPath(drop_prob=0.071)
        )
      )
    )
    (6): FullyShardedDataParallel(
      (_fsdp_wrapped_module): CheckpointWrapper(
        (_checkpoint_wrapped_module): Block(
          (norm1): LayerNorm((128,), eps=1e-05, elementwise_affine=True)
          (attn): Attention(
            (qkv): Linear(in_features=128, out_features=384, bias=True)
            (q_norm): Identity()
            (k_norm): Identity()
            (attn_drop): Dropout(p=0.1, inplace=False)
            (proj): Linear(in_features=128, out_features=128, bias=True)
            (proj_drop): Dropout(p=0.1, inplace=False)
          )
          (ls1): Identity()
          (drop_path1): DropPath(drop_prob=0.086)
          (norm2): LayerNorm((128,), eps=1e-05, elementwise_affine=True)
          (mlp): Mlp(
            (fc1): Linear(in_features=128, out_features=512, bias=True)
            (act): GELU(approximate='none')
            (drop1): Dropout(p=0.1, inplace=False)
            (norm): Identity()
            (attn_drop): Dropout(p=0.1, inplace=False)
            (proj): Linear(in_features=128, out_features=128, bias=True)
            (proj_drop): Dropout(p=0.1, inplace=False)
          )
          (ls1): Identity()
          (drop_path1): DropPath(drop_prob=0.043)
          (norm2): LayerNorm((128,), eps=1e-05, elementwise_affine=True)
          (mlp): Mlp(
            (fc1): Linear(in_features=128, out_features=512, bias=True)
            (act): GELU(approximate='none')
            (drop1): Dropout(p=0.1, inplace=False)
            (norm): Identity()
            (fc2): Linear(in_features=512, out_features=128, bias=True)
            (drop2): Dropout(p=0.1, inplace=False)
          )
          (ls2): Identity()
          (drop_path2): DropPath(drop_prob=0.043)
        )
      )
    )
    (4): FullyShardedDataParallel(
      (_fsdp_wrapped_module): CheckpointWrapper(
        (_checkpoint_wrapped_module): Block(
          (norm1): LayerNorm((128,), eps=1e-05, elementwise_affine=True)
          (attn): Attention(
            (qkv): Linear(in_features=128, out_features=384, bias=True)
            (q_norm): Identity()
            (k_norm): Identity()
            (attn_drop): Dropout(p=0.1, inplace=False)
            (proj): Linear(in_features=128, out_features=128, bias=True)
            (proj_drop): Dropout(p=0.1, inplace=False)
          )
          (ls1): Identity()
          (drop_path1): DropPath(drop_prob=0.057)
          (norm2): LayerNorm((128,), eps=1e-05, elementwise_affine=True)
          (mlp): Mlp(
            (fc1): Linear(in_features=128, out_features=512, bias=True)
            (act): GELU(approximate='none')
            (drop1): Dropout(p=0.1, inplace=False)
            (norm): Identity()
            (fc2): Linear(in_features=512, out_features=128, bias=True)
            (drop2): Dropout(p=0.1, inplace=False)
          )
          (ls2): Identity()
          (drop_path2): DropPath(drop_prob=0.057)
        )
      )
    )
    (5): FullyShardedDataParallel(
      (_fsdp_wrapped_module): CheckpointWrapper(
        (_checkpoint_wrapped_module): Block(
          (norm1): LayerNorm((128,), eps=1e-05, elementwise_affine=True)
          (attn): Attention(
            (qkv): Linear(in_features=128, out_features=384, bias=True)
            (q_norm): Identity()
            (k_norm): Identity()
            (attn_drop): Dropout(p=0.1, inplace=False)
            (proj): Linear(in_features=128, out_features=128, bias=True)
            (proj_drop): Dropout(p=0.1, inplace=False)
          )
          (ls1): Identity()
          (drop_path1): DropPath(drop_prob=0.071)
          (norm2): LayerNorm((128,), eps=1e-05, elementwise_affine=True)
          (mlp): Mlp(
            (fc1): Linear(in_features=128, out_features=512, bias=True)
            (act): GELU(approximate='none')
            (drop1): Dropout(p=0.1, inplace=False)
            (norm): Identity()
            (fc2): Linear(in_features=512, out_features=128, bias=True)
            (drop2): Dropout(p=0.1, inplace=False)
          )
          (ls2): Identity()
          (drop_path2): DropPath(drop_prob=0.071)
        )
      )
    )
    (6): FullyShardedDataParallel(
      (_fsdp_wrapped_module): CheckpointWrapper(
        (_checkpoint_wrapped_module): Block(
          (norm1): LayerNorm((128,), eps=1e-05, elementwise_affine=True)
          (attn): Attention(
            (qkv): Linear(in_features=128, out_features=384, bias=True)
            (q_norm): Identity()
            (k_norm): Identity()
            (attn_drop): Dropout(p=0.1, inplace=False)
            (proj): Linear(in_features=128, out_features=128, bias=True)
            (proj_drop): Dropout(p=0.1, inplace=False)
          )
          (ls1): Identity()
          (drop_path1): DropPath(drop_prob=0.086)
          (norm2): LayerNorm((128,), eps=1e-05, elementwise_affine=True)
          (mlp): Mlp(
            (fc1): Linear(in_features=128, out_features=512, bias=True)
            (act): GELU(approximate='none')
            (drop1): Dropout(p=0.1, inplace=False)
            (norm): Identity()
            (attn_drop): Dropout(p=0.1, inplace=False)
            (proj): Linear(in_features=128, out_features=128, bias=True)
            (proj_drop): Dropout(p=0.1, inplace=False)
          )
          (ls1): Identity()
          (drop_path1): DropPath(drop_prob=0.043)
          (norm2): LayerNorm((128,), eps=1e-05, elementwise_affine=True)
          (mlp): Mlp(
            (fc1): Linear(in_features=128, out_features=512, bias=True)
            (act): GELU(approximate='none')
            (drop1): Dropout(p=0.1, inplace=False)
            (norm): Identity()
            (fc2): Linear(in_features=512, out_features=128, bias=True)
            (drop2): Dropout(p=0.1, inplace=False)
          )
          (ls2): Identity()
          (drop_path2): DropPath(drop_prob=0.043)
        )
      )
    )
    (4): FullyShardedDataParallel(
      (_fsdp_wrapped_module): CheckpointWrapper(
        (_checkpoint_wrapped_module): Block(
          (norm1): LayerNorm((128,), eps=1e-05, elementwise_affine=True)
          (attn): Attention(
            (qkv): Linear(in_features=128, out_features=384, bias=True)
            (q_norm): Identity()
            (k_norm): Identity()
            (attn_drop): Dropout(p=0.1, inplace=False)
            (proj): Linear(in_features=128, out_features=128, bias=True)
            (proj_drop): Dropout(p=0.1, inplace=False)
          )
          (ls1): Identity()
          (drop_path1): DropPath(drop_prob=0.057)
          (norm2): LayerNorm((128,), eps=1e-05, elementwise_affine=True)
          (mlp): Mlp(
            (fc1): Linear(in_features=128, out_features=512, bias=True)
            (act): GELU(approximate='none')
            (drop1): Dropout(p=0.1, inplace=False)
            (norm): Identity()
            (fc2): Linear(in_features=512, out_features=128, bias=True)
            (drop2): Dropout(p=0.1, inplace=False)
          )
          (ls2): Identity()
          (drop_path2): DropPath(drop_prob=0.057)
        )
      )
    )
    (5): FullyShardedDataParallel(
      (_fsdp_wrapped_module): CheckpointWrapper(
        (_checkpoint_wrapped_module): Block(
          (norm1): LayerNorm((128,), eps=1e-05, elementwise_affine=True)
          (attn): Attention(
            (qkv): Linear(in_features=128, out_features=384, bias=True)
            (q_norm): Identity()
            (k_norm): Identity()
            (attn_drop): Dropout(p=0.1, inplace=False)
            (proj): Linear(in_features=128, out_features=128, bias=True)
            (proj_drop): Dropout(p=0.1, inplace=False)
          )
          (ls1): Identity()
          (drop_path1): DropPath(drop_prob=0.071)
          (norm2): LayerNorm((128,), eps=1e-05, elementwise_affine=True)
          (mlp): Mlp(
            (fc1): Linear(in_features=128, out_features=512, bias=True)
            (act): GELU(approximate='none')
            (drop1): Dropout(p=0.1, inplace=False)
            (norm): Identity()
            (fc2): Linear(in_features=512, out_features=128, bias=True)
            (drop2): Dropout(p=0.1, inplace=False)
          )
          (ls2): Identity()
          (drop_path2): DropPath(drop_prob=0.071)
        )
      )
    )
    (6): FullyShardedDataParallel(
      (_fsdp_wrapped_module): CheckpointWrapper(
        (_checkpoint_wrapped_module): Block(
          (norm1): LayerNorm((128,), eps=1e-05, elementwise_affine=True)
          (attn): Attention(
            (qkv): Linear(in_features=128, out_features=384, bias=True)
            (q_norm): Identity()
            (k_norm): Identity()
            (attn_drop): Dropout(p=0.1, inplace=False)
            (proj): Linear(in_features=128, out_features=128, bias=True)
            (proj_drop): Dropout(p=0.1, inplace=False)
          )
          (ls1): Identity()
          (drop_path1): DropPath(drop_prob=0.086)
          (norm2): LayerNorm((128,), eps=1e-05, elementwise_affine=True)
          (mlp): Mlp(
            (fc1): Linear(in_features=128, out_features=512, bias=True)
            (act): GELU(approximate='none')
            (drop1): Dropout(p=0.1, inplace=False)
            (norm): Identity()
            (fc2): Linear(in_features=512, out_features=128, bias=True)
            (drop2): Dropout(p=0.1, inplace=False)
          )
          (ls2): Identity()
          (drop_path2): DropPath(drop_prob=0.086)
        )
      )
    )
    (7): FullyShardedDataParallel(
      (_fsdp_wrapped_module): CheckpointWrapper(
        (_checkpoint_wrapped_module): Block(
          (norm1): LayerNorm((128,), eps=1e-05, elementwise_affine=True)
          (attn): Attention(
            (qkv): Linear(in_features=128, out_features=384, bias=True)
            (q_norm): Identity()
            (k_norm): Identity()
            (attn_drop): Dropout(p=0.1, inplace=False)
            (proj): Linear(in_features=128, out_features=128, bias=True)
            (proj_drop): Dropout(p=0.1, inplace=False)
          )
          (ls1): Identity()
          (drop_path1): DropPath(drop_prob=0.100)
          (norm2): LayerNorm((128,), eps=1e-05, elementwise_affine=True)
          (mlp): Mlp(
            (fc1): Linear(in_features=128, out_features=512, bias=True)
            (act): GELU(approximate='none')
            (drop1): Dropout(p=0.1, inplace=False)
            (norm): Identity()
            (fc2): Linear(in_features=512, out_features=128, bias=True)
            (drop2): Dropout(p=0.1, inplace=False)
          )
          (ls2): Identity()
          (drop_path2): DropPath(drop_prob=0.100)
        )
      )
    )
  )
  (norm): LayerNorm((128,), eps=1e-05, elementwise_affine=True)
  (path2): Sequential(
    (0): Conv2d(126, 4, kernel_size=(3, 3), stride=(1, 1), padding=(1, 1))
    (1): GELU(approximate='none')
    (2): PixelShuffle(upscale_factor=1)
    (3): Conv2d(4, 6, kernel_size=(3, 3), stride=(1, 1), padding=(1, 1))
  )
  (path1): Sequential(
    (0): Conv2d(6, 4, kernel_size=(3, 3), stride=(1, 1), padding=(1, 1))
    (1): GELU(approximate='none')
    (2): PixelShuffle(upscale_factor=1)
    (3): Conv2d(4, 6, kernel_size=(3, 3), stride=(1, 1), padding=(1, 1))
  )
  (to_img): Linear(in_features=128, out_features=24, bias=True)
  (head): Sequential(
    (0): Linear(in_features=64, out_features=64, bias=True)
    (1): GELU(approximate='none')
    (2): Linear(in_features=64, out_features=64, bias=True)
    (3): GELU(approximate='none')
    (4): Linear(in_features=64, out_features=64, bias=True)
  )
)

[net] key attrs: {'in_channels': 126, 'out_channels': 6, 'img_size': (32, 64), 'patch_size': 2, 'cnn_ratio': 4, 'superres_factor': 1}
[net] pos_embed.shape: (0,)
[net] patch_embed.proj.weight: (0,)
[net] patch_embed.proj.bias:   (0,)

[net] full module tree:
            (fc2): Linear(in_features=512, out_features=128, bias=True)
            (drop2): Dropout(p=0.1, inplace=False)
          )
          (ls2): Identity()
          (drop_path2): DropPath(drop_prob=0.086)
        )
      )
    )
    (7): FullyShardedDataParallel(
      (_fsdp_wrapped_module): CheckpointWrapper(
        (_checkpoint_wrapped_module): Block(
          (norm1): LayerNorm((128,), eps=1e-05, elementwise_affine=True)
          (attn): Attention(
            (qkv): Linear(in_features=128, out_features=384, bias=True)
            (q_norm): Identity()
            (k_norm): Identity()
            (attn_drop): Dropout(p=0.1, inplace=False)
            (proj): Linear(in_features=128, out_features=128, bias=True)
            (proj_drop): Dropout(p=0.1, inplace=False)
          )
          (ls1): Identity()
          (drop_path1): DropPath(drop_prob=0.100)
          (norm2): LayerNorm((128,), eps=1e-05, elementwise_affine=True)
          (mlp): Mlp(
            (fc1): Linear(in_features=128, out_features=512, bias=True)
            (act): GELU(approximate='none')
            (drop1): Dropout(p=0.1, inplace=False)
            (norm): Identity()
            (fc2): Linear(in_features=512, out_features=128, bias=True)
            (drop2): Dropout(p=0.1, inplace=False)
          )
          (ls2): Identity()
          (drop_path2): DropPath(drop_prob=0.100)
        )
      )
    )
  )
  (norm): LayerNorm((128,), eps=1e-05, elementwise_affine=True)
  (path2): Sequential(
    (0): Conv2d(126, 4, kernel_size=(3, 3), stride=(1, 1), padding=(1, 1))
    (1): GELU(approximate='none')
    (2): PixelShuffle(upscale_factor=1)
    (3): Conv2d(4, 6, kernel_size=(3, 3), stride=(1, 1), padding=(1, 1))
  )
  (path1): Sequential(
    (0): Conv2d(6, 4, kernel_size=(3, 3), stride=(1, 1), padding=(1, 1))
    (1): GELU(approximate='none')
    (2): PixelShuffle(upscale_factor=1)
    (3): Conv2d(4, 6, kernel_size=(3, 3), stride=(1, 1), padding=(1, 1))
  )
  (to_img): Linear(in_features=128, out_features=24, bias=True)
  (head): Sequential(
    (0): Linear(in_features=64, out_features=64, bias=True)
    (1): GELU(approximate='none')
    (2): Linear(in_features=64, out_features=64, bias=True)
    (3): GELU(approximate='none')
    (4): Linear(in_features=64, out_features=64, bias=True)
  )
)

[net] key attrs: {'in_channels': 126, 'out_channels': 6, 'img_size': (32, 64), 'patch_size': 2, 'cnn_ratio': 4, 'superres_factor': 1}
[net] pos_embed.shape: (0,)
[net] patch_embed.proj.weight: (18902,)
[net] patch_embed.proj.bias:   (0,)
            (fc2): Linear(in_features=512, out_features=128, bias=True)
            (drop2): Dropout(p=0.1, inplace=False)
          )
          (ls2): Identity()
          (drop_path2): DropPath(drop_prob=0.086)
        )
      )
    )
    (7): FullyShardedDataParallel(
      (_fsdp_wrapped_module): CheckpointWrapper(
        (_checkpoint_wrapped_module): Block(
          (norm1): LayerNorm((128,), eps=1e-05, elementwise_affine=True)
          (attn): Attention(
            (qkv): Linear(in_features=128, out_features=384, bias=True)
            (q_norm): Identity()
            (k_norm): Identity()
            (attn_drop): Dropout(p=0.1, inplace=False)
            (proj): Linear(in_features=128, out_features=128, bias=True)
            (proj_drop): Dropout(p=0.1, inplace=False)
          )
          (ls1): Identity()
          (drop_path1): DropPath(drop_prob=0.100)
          (norm2): LayerNorm((128,), eps=1e-05, elementwise_affine=True)
          (mlp): Mlp(
            (fc1): Linear(in_features=128, out_features=512, bias=True)
            (act): GELU(approximate='none')
            (drop1): Dropout(p=0.1, inplace=False)
            (norm): Identity()
            (fc2): Linear(in_features=512, out_features=128, bias=True)
            (drop2): Dropout(p=0.1, inplace=False)
          )
          (ls2): Identity()
          (drop_path2): DropPath(drop_prob=0.100)
        )
      )
    )
  )
  (norm): LayerNorm((128,), eps=1e-05, elementwise_affine=True)
  (path2): Sequential(
    (0): Conv2d(126, 4, kernel_size=(3, 3), stride=(1, 1), padding=(1, 1))
    (1): GELU(approximate='none')
    (2): PixelShuffle(upscale_factor=1)
    (3): Conv2d(4, 6, kernel_size=(3, 3), stride=(1, 1), padding=(1, 1))
  )
  (path1): Sequential(
    (0): Conv2d(6, 4, kernel_size=(3, 3), stride=(1, 1), padding=(1, 1))
    (1): GELU(approximate='none')
    (2): PixelShuffle(upscale_factor=1)
    (3): Conv2d(4, 6, kernel_size=(3, 3), stride=(1, 1), padding=(1, 1))
  )
  (to_img): Linear(in_features=128, out_features=24, bias=True)
  (head): Sequential(
    (0): Linear(in_features=64, out_features=64, bias=True)
    (1): GELU(approximate='none')
    (2): Linear(in_features=64, out_features=64, bias=True)
    (3): GELU(approximate='none')
    (4): Linear(in_features=64, out_features=64, bias=True)
  )
)

[net] key attrs: {'in_channels': 126, 'out_channels': 6, 'img_size': (32, 64), 'patch_size': 2, 'cnn_ratio': 4, 'superres_factor': 1}
[net] pos_embed.shape: (0,)
[net] patch_embed.proj.weight: (18902,)
[net] patch_embed.proj.bias:   (0,)
            (fc2): Linear(in_features=512, out_features=128, bias=True)
            (drop2): Dropout(p=0.1, inplace=False)
          )
          (ls2): Identity()
          (drop_path2): DropPath(drop_prob=0.086)
        )
      )
    )
    (7): FullyShardedDataParallel(
      (_fsdp_wrapped_module): CheckpointWrapper(
        (_checkpoint_wrapped_module): Block(
          (norm1): LayerNorm((128,), eps=1e-05, elementwise_affine=True)
          (attn): Attention(
            (qkv): Linear(in_features=128, out_features=384, bias=True)
            (q_norm): Identity()
            (k_norm): Identity()
            (attn_drop): Dropout(p=0.1, inplace=False)
            (proj): Linear(in_features=128, out_features=128, bias=True)
            (proj_drop): Dropout(p=0.1, inplace=False)
          )
          (ls1): Identity()
          (drop_path1): DropPath(drop_prob=0.100)
          (norm2): LayerNorm((128,), eps=1e-05, elementwise_affine=True)
          (mlp): Mlp(
            (fc1): Linear(in_features=128, out_features=512, bias=True)
            (act): GELU(approximate='none')
            (drop1): Dropout(p=0.1, inplace=False)
            (norm): Identity()
            (fc2): Linear(in_features=512, out_features=128, bias=True)
            (drop2): Dropout(p=0.1, inplace=False)
          )
          (ls2): Identity()
          (drop_path2): DropPath(drop_prob=0.100)
        )
      )
    )
  )
  (norm): LayerNorm((128,), eps=1e-05, elementwise_affine=True)
  (path2): Sequential(
    (0): Conv2d(126, 4, kernel_size=(3, 3), stride=(1, 1), padding=(1, 1))
    (1): GELU(approximate='none')
    (2): PixelShuffle(upscale_factor=1)
    (3): Conv2d(4, 6, kernel_size=(3, 3), stride=(1, 1), padding=(1, 1))
  )
  (path1): Sequential(
    (0): Conv2d(6, 4, kernel_size=(3, 3), stride=(1, 1), padding=(1, 1))
    (1): GELU(approximate='none')
    (2): PixelShuffle(upscale_factor=1)
    (3): Conv2d(4, 6, kernel_size=(3, 3), stride=(1, 1), padding=(1, 1))
  )
  (to_img): Linear(in_features=128, out_features=24, bias=True)
  (head): Sequential(
    (0): Linear(in_features=64, out_features=64, bias=True)
    (1): GELU(approximate='none')
    (2): Linear(in_features=64, out_features=64, bias=True)
    (3): GELU(approximate='none')
    (4): Linear(in_features=64, out_features=64, bias=True)
  )
)

[net] key attrs: {'in_channels': 126, 'out_channels': 6, 'img_size': (32, 64), 'patch_size': 2, 'cnn_ratio': 4, 'superres_factor': 1}
[net] pos_embed.shape: (0,)
[net] patch_embed.proj.weight: (16636,)
[net] patch_embed.proj.bias:   (128,)
 Res_Slim_ViT(
  (patch_embed): PatchEmbed(
    (proj): Conv2d(126, 128, kernel_size=(2, 2), stride=(2, 2))
    (norm): Identity()
  )
  (pos_drop): Dropout(p=0.1, inplace=False)
  (blocks): ModuleList(
    (0): FullyShardedDataParallel(
      (_fsdp_wrapped_module): CheckpointWrapper(
        (_checkpoint_wrapped_module): Block(
          (norm1): LayerNorm((128,), eps=1e-05, elementwise_affine=True)
          (attn): Attention(
            (qkv): Linear(in_features=128, out_features=384, bias=True)
            (q_norm): Identity()
            (k_norm): Identity()
            (attn_drop): Dropout(p=0.1, inplace=False)
            (proj): Linear(in_features=128, out_features=128, bias=True)
            (proj_drop): Dropout(p=0.1, inplace=False)
          )
          (ls1): Identity()
          (drop_path1): Identity()
          (norm2): LayerNorm((128,), eps=1e-05, elementwise_affine=True)
          (mlp): Mlp(
            (fc1): Linear(in_features=128, out_features=512, bias=True)
            (act): GELU(approximate='none')
            (drop1): Dropout(p=0.1, inplace=False)
            (norm): Identity()
            (fc2): Linear(in_features=512, out_features=128, bias=True)
            (drop2): Dropout(p=0.1, inplace=False)
          )
          (ls2): Identity()
          (drop_path2): Identity()
        )
      )
    )
    (1): FullyShardedDataParallel(
      (_fsdp_wrapped_module): CheckpointWrapper(
        (_checkpoint_wrapped_module): Block(
          (norm1): LayerNorm((128,), eps=1e-05, elementwise_affine=True)
          (attn): Attention(
            (qkv): Linear(in_features=128, out_features=384, bias=True)
            (q_norm): Identity()
            (k_norm): Identity()
            (attn_drop): Dropout(p=0.1, inplace=False)
            (proj): Linear(in_features=128, out_features=128, bias=True)
            (proj_drop): Dropout(p=0.1, inplace=False)
          )
          (ls1): Identity()
          (drop_path1): DropPath(drop_prob=0.014)
          (norm2): LayerNorm((128,), eps=1e-05, elementwise_affine=True)
          (mlp): Mlp(
            (fc1): Linear(in_features=128, out_features=512, bias=True)
            (act): GELU(approximate='none')
            (drop1): Dropout(p=0.1, inplace=False)
            (norm): Identity()
            (fc2): Linear(in_features=512, out_features=128, bias=True)
            (drop2): Dropout(p=0.1, inplace=False)
          )
          (ls2): Identity()
          (drop_path2): DropPath(drop_prob=0.014)
        )
      )
    )
    (2): FullyShardedDataParallel(
      (_fsdp_wrapped_module): CheckpointWrapper(
        (_checkpoint_wrapped_module): Block(
          (norm1): LayerNorm((128,), eps=1e-05, elementwise_affine=True)
          (attn): Attention(
            (qkv): Linear(in_features=128, out_features=384, bias=True)
            (q_norm): Identity()
            (k_norm): Identity()
            (attn_drop): Dropout(p=0.1, inplace=False)
            (proj): Linear(in_features=128, out_features=128, bias=True)
            (proj_drop): Dropout(p=0.1, inplace=False)
          )
          (ls1): Identity()
          (drop_path1): DropPath(drop_prob=0.029)
          (norm2): LayerNorm((128,), eps=1e-05, elementwise_affine=True)
          (mlp): Mlp(
            (fc1): Linear(in_features=128, out_features=512, bias=True)
            (act): GELU(approximate='none')
            (drop1): Dropout(p=0.1, inplace=False)
            (norm): Identity()
            (fc2): Linear(in_features=512, out_features=128, bias=True)
            (drop2): Dropout(p=0.1, inplace=False)
          )
          (ls2): Identity()
          (drop_path2): DropPath(drop_prob=0.029)
        )
      )
    )
    (3): FullyShardedDataParallel(
      (_fsdp_wrapped_module): CheckpointWrapper(
        (_checkpoint_wrapped_module): Block(
          (norm1): LayerNorm((128,), eps=1e-05, elementwise_affine=True)
          (attn): Attention(
            (qkv): Linear(in_features=128, out_features=384, bias=True)
            (q_norm): Identity()
            (k_norm): Identity()
            (attn_drop): Dropout(p=0.1, inplace=False)
            (proj): Linear(in_features=128, out_features=128, bias=True)
            (proj_drop): Dropout(p=0.1, inplace=False)
          )
          (ls1): Identity()
          (drop_path1): DropPath(drop_prob=0.043)
          (norm2): LayerNorm((128,), eps=1e-05, elementwise_affine=True)
          (mlp): Mlp(
            (fc1): Linear(in_features=128, out_features=512, bias=True)
            (act): GELU(approximate='none')
            (drop1): Dropout(p=0.1, inplace=False)
            (norm): Identity()
            (fc2): Linear(in_features=512, out_features=128, bias=True)
            (drop2): Dropout(p=0.1, inplace=False)
          )
          (ls2): Identity()
          (drop_path2): DropPath(drop_prob=0.043)
        )
      )
    )
    (4): FullyShardedDataParallel(
      (_fsdp_wrapped_module): CheckpointWrapper(
        (_checkpoint_wrapped_module): Block(
          (norm1): LayerNorm((128,), eps=1e-05, elementwise_affine=True)
          (attn): Attention(
            (qkv): Linear(in_features=128, out_features=384, bias=True)
            (q_norm): Identity()
            (k_norm): Identity()
            (attn_drop): Dropout(p=0.1, inplace=False)
            (proj): Linear(in_features=128, out_features=128, bias=True)
            (proj_drop): Dropout(p=0.1, inplace=False)
          )
          (ls1): Identity()
          (drop_path1): DropPath(drop_prob=0.057)
          (norm2): LayerNorm((128,), eps=1e-05, elementwise_affine=True)
          (mlp): Mlp(
            (fc1): Linear(in_features=128, out_features=512, bias=True)
            (act): GELU(approximate='none')
            (drop1): Dropout(p=0.1, inplace=False)
            (norm): Identity()
            (fc2): Linear(in_features=512, out_features=128, bias=True)
            (drop2): Dropout(p=0.1, inplace=False)
          )
          (ls2): Identity()
          (drop_path2): DropPath(drop_prob=0.057)
        )
      )
    )
    (5): FullyShardedDataParallel(
      (_fsdp_wrapped_module): CheckpointWrapper(
        (_checkpoint_wrapped_module): Block(
          (norm1): LayerNorm((128,), eps=1e-05, elementwise_affine=True)
          (attn): Attention(
            (qkv): Linear(in_features=128, out_features=384, bias=True)
            (q_norm): Identity()
            (k_norm): Identity()
            (attn_drop): Dropout(p=0.1, inplace=False)
            (proj): Linear(in_features=128, out_features=128, bias=True)
            (proj_drop): Dropout(p=0.1, inplace=False)
          )
          (ls1): Identity()
          (drop_path1): DropPath(drop_prob=0.071)
          (norm2): LayerNorm((128,), eps=1e-05, elementwise_affine=True)
          (mlp): Mlp(
            (fc1): Linear(in_features=128, out_features=512, bias=True)
            (act): GELU(approximate='none')
            (drop1): Dropout(p=0.1, inplace=False)
            (norm): Identity()
            (fc2): Linear(in_features=512, out_features=128, bias=True)
            (drop2): Dropout(p=0.1, inplace=False)
          )
          (ls2): Identity()
          (drop_path2): DropPath(drop_prob=0.071)
        )
      )
    )
    (6): FullyShardedDataParallel(
      (_fsdp_wrapped_module): CheckpointWrapper(
        (_checkpoint_wrapped_module): Block(
          (norm1): LayerNorm((128,), eps=1e-05, elementwise_affine=True)
          (attn): Attention(
            (qkv): Linear(in_features=128, out_features=384, bias=True)
            (q_norm): Identity()
            (k_norm): Identity()
            (attn_drop): Dropout(p=0.1, inplace=False)
            (proj): Linear(in_features=128, out_features=128, bias=True)
            (proj_drop): Dropout(p=0.1, inplace=False)
          )
          (ls1): Identity()
          (drop_path1): DropPath(drop_prob=0.086)
          (norm2): LayerNorm((128,), eps=1e-05, elementwise_affine=True)
          (mlp): Mlp(
            (fc1): Linear(in_features=128, out_features=512, bias=True)
            (act): GELU(approximate='none')
            (drop1): Dropout(p=0.1, inplace=False)
            (norm): Identity()
            (fc2): Linear(in_features=512, out_features=128, bias=True)
            (drop2): Dropout(p=0.1, inplace=False)
          )
          (ls2): Identity()
          (drop_path2): DropPath(drop_prob=0.086)
        )
      )
    )
    (7): FullyShardedDataParallel(
      (_fsdp_wrapped_module): CheckpointWrapper(
        (_checkpoint_wrapped_module): Block(
          (norm1): LayerNorm((128,), eps=1e-05, elementwise_affine=True)
          (attn): Attention(
            (qkv): Linear(in_features=128, out_features=384, bias=True)
            (q_norm): Identity()
            (k_norm): Identity()
            (attn_drop): Dropout(p=0.1, inplace=False)
            (proj): Linear(in_features=128, out_features=128, bias=True)
            (proj_drop): Dropout(p=0.1, inplace=False)
          )
          (ls1): Identity()
          (drop_path1): DropPath(drop_prob=0.100)
          (norm2): LayerNorm((128,), eps=1e-05, elementwise_affine=True)
          (mlp): Mlp(
            (fc1): Linear(in_features=128, out_features=512, bias=True)
            (act): GELU(approximate='none')
            (drop1): Dropout(p=0.1, inplace=False)
            (norm): Identity()
            (fc2): Linear(in_features=512, out_features=128, bias=True)
            (drop2): Dropout(p=0.1, inplace=False)
          )
          (ls2): Identity()
          (drop_path2): DropPath(drop_prob=0.100)
        )
      )
    )
  )
  (norm): LayerNorm((128,), eps=1e-05, elementwise_affine=True)
  (path2): Sequential(
    (0): Conv2d(126, 4, kernel_size=(3, 3), stride=(1, 1), padding=(1, 1))
    (1): GELU(approximate='none')
    (2): PixelShuffle(upscale_factor=1)
    (3): Conv2d(4, 6, kernel_size=(3, 3), stride=(1, 1), padding=(1, 1))
  )
  (path1): Sequential(
    (0): Conv2d(6, 4, kernel_size=(3, 3), stride=(1, 1), padding=(1, 1))
    (1): GELU(approximate='none')
    (2): PixelShuffle(upscale_factor=1)
    (3): Conv2d(4, 6, kernel_size=(3, 3), stride=(1, 1), padding=(1, 1))
  )
  (to_img): Linear(in_features=128, out_features=24, bias=True)
  (head): Sequential(
    (0): Linear(in_features=64, out_features=64, bias=True)
    (1): GELU(approximate='none')
    (2): Linear(in_features=64, out_features=64, bias=True)
    (3): GELU(approximate='none')
    (4): Linear(in_features=64, out_features=64, bias=True)
  )
)

[net] key attrs: {'in_channels': 126, 'out_channels': 6, 'img_size': (32, 64), 'patch_size': 2, 'cnn_ratio': 4, 'superres_factor': 1}
[net] pos_embed.shape: (18902,)
[net] patch_embed.proj.weight: (0,)
[net] patch_embed.proj.bias:   (0,)
LOCAL_RANK: 0 - CUDA_VISIBLE_DEVICES: [0,1,2,3,4,5,6,7]
LOCAL_RANK: 1 - CUDA_VISIBLE_DEVICES: [0,1,2,3,4,5,6,7]
…
